{
  "nodes": [
    {
      "op": "null", 
      "name": "data", 
      "inputs": []
    }, 
    {
      "op": "null", 
      "name": "batchnorm1_gamma", 
      "attrs": {
        "__dtype__": "0", 
        "__init__": "ones", 
        "__lr_mult__": "1.0", 
        "__shape__": "(0,)", 
        "__storage_type__": "0", 
        "__wd_mult__": "1.0"
      }, 
      "inputs": []
    }, 
    {
      "op": "null", 
      "name": "batchnorm1_beta", 
      "attrs": {
        "__dtype__": "0", 
        "__init__": "zeros", 
        "__lr_mult__": "1.0", 
        "__shape__": "(0,)", 
        "__storage_type__": "0", 
        "__wd_mult__": "1.0"
      }, 
      "inputs": []
    }, 
    {
      "op": "null", 
      "name": "batchnorm1_running_mean", 
      "attrs": {
        "__dtype__": "0", 
        "__init__": "zeros", 
        "__lr_mult__": "1.0", 
        "__shape__": "(0,)", 
        "__storage_type__": "0", 
        "__wd_mult__": "1.0"
      }, 
      "inputs": []
    }, 
    {
      "op": "null", 
      "name": "batchnorm1_running_var", 
      "attrs": {
        "__dtype__": "0", 
        "__init__": "ones", 
        "__lr_mult__": "1.0", 
        "__shape__": "(0,)", 
        "__storage_type__": "0", 
        "__wd_mult__": "1.0"
      }, 
      "inputs": []
    }, 
    {
      "op": "BatchNorm", 
      "name": "batchnorm1_fwd", 
      "attrs": {
        "axis": "1", 
        "eps": "1e-05", 
        "fix_gamma": "False", 
        "momentum": "0.9", 
        "use_global_stats": "False"
      }, 
      "inputs": [[0, 0, 0], [1, 0, 0], [2, 0, 0], [3, 0, 1], [4, 0, 1]]
    }, 
    {
      "op": "null", 
      "name": "conv0_weight", 
      "attrs": {
        "__dtype__": "0", 
        "__lr_mult__": "1.0", 
        "__shape__": "(64, 3, 5, 7, 7)", 
        "__storage_type__": "0", 
        "__wd_mult__": "1.0"
      }, 
      "inputs": []
    }, 
    {
      "op": "Convolution", 
      "name": "conv0_fwd", 
      "attrs": {
        "dilate": "(1, 1, 1)", 
        "kernel": "(5, 7, 7)", 
        "layout": "NCDHW", 
        "no_bias": "True", 
        "num_filter": "64", 
        "num_group": "1", 
        "pad": "(2, 3, 3)", 
        "stride": "(2, 2, 2)"
      }, 
      "inputs": [[5, 0, 0], [6, 0, 0]]
    }, 
    {
      "op": "null", 
      "name": "batchnorm0_gamma", 
      "attrs": {
        "__dtype__": "0", 
        "__init__": "ones", 
        "__lr_mult__": "1.0", 
        "__shape__": "(64,)", 
        "__storage_type__": "0", 
        "__wd_mult__": "1.0"
      }, 
      "inputs": []
    }, 
    {
      "op": "null", 
      "name": "batchnorm0_beta", 
      "attrs": {
        "__dtype__": "0", 
        "__init__": "zeros", 
        "__lr_mult__": "1.0", 
        "__shape__": "(64,)", 
        "__storage_type__": "0", 
        "__wd_mult__": "1.0"
      }, 
      "inputs": []
    }, 
    {
      "op": "null", 
      "name": "batchnorm0_running_mean", 
      "attrs": {
        "__dtype__": "0", 
        "__init__": "zeros", 
        "__lr_mult__": "1.0", 
        "__shape__": "(64,)", 
        "__storage_type__": "0", 
        "__wd_mult__": "1.0"
      }, 
      "inputs": []
    }, 
    {
      "op": "null", 
      "name": "batchnorm0_running_var", 
      "attrs": {
        "__dtype__": "0", 
        "__init__": "ones", 
        "__lr_mult__": "1.0", 
        "__shape__": "(64,)", 
        "__storage_type__": "0", 
        "__wd_mult__": "1.0"
      }, 
      "inputs": []
    }, 
    {
      "op": "BatchNorm", 
      "name": "batchnorm0_fwd", 
      "attrs": {
        "axis": "1", 
        "eps": "1e-05", 
        "fix_gamma": "False", 
        "momentum": "0.9", 
        "use_global_stats": "False"
      }, 
      "inputs": [[7, 0, 0], [8, 0, 0], [9, 0, 0], [10, 0, 1], [11, 0, 1]]
    }, 
    {
      "op": "Activation", 
      "name": "relu0_fwd", 
      "attrs": {"act_type": "relu"}, 
      "inputs": [[12, 0, 0]]
    }, 
    {
      "op": "Pooling", 
      "name": "pool0_fwd", 
      "attrs": {
        "global_pool": "False", 
        "kernel": "(1, 3, 3)", 
        "layout": "NCDHW", 
        "pad": "(0, 1, 1)", 
        "pool_type": "max", 
        "pooling_convention": "valid", 
        "stride": "(2, 2, 2)"
      }, 
      "inputs": [[13, 0, 0]]
    }, 
    {
      "op": "null", 
      "name": "layer1_0_conv0_weight", 
      "attrs": {
        "__dtype__": "0", 
        "__lr_mult__": "1.0", 
        "__shape__": "(64, 64, 3, 1, 1)", 
        "__storage_type__": "0", 
        "__wd_mult__": "1.0"
      }, 
      "inputs": []
    }, 
    {
      "op": "Convolution", 
      "name": "layer1_0_conv0_fwd", 
      "attrs": {
        "dilate": "(1, 1, 1)", 
        "kernel": "(3, 1, 1)", 
        "layout": "NCDHW", 
        "no_bias": "True", 
        "num_filter": "64", 
        "num_group": "1", 
        "pad": "(1, 0, 0)", 
        "stride": "(1, 1, 1)"
      }, 
      "inputs": [[14, 0, 0], [15, 0, 0]]
    }, 
    {
      "op": "null", 
      "name": "layer1_0_batchnorm0_gamma", 
      "attrs": {
        "__dtype__": "0", 
        "__init__": "ones", 
        "__lr_mult__": "1.0", 
        "__shape__": "(64,)", 
        "__storage_type__": "0", 
        "__wd_mult__": "1.0"
      }, 
      "inputs": []
    }, 
    {
      "op": "null", 
      "name": "layer1_0_batchnorm0_beta", 
      "attrs": {
        "__dtype__": "0", 
        "__init__": "zeros", 
        "__lr_mult__": "1.0", 
        "__shape__": "(64,)", 
        "__storage_type__": "0", 
        "__wd_mult__": "1.0"
      }, 
      "inputs": []
    }, 
    {
      "op": "null", 
      "name": "layer1_0_batchnorm0_running_mean", 
      "attrs": {
        "__dtype__": "0", 
        "__init__": "zeros", 
        "__lr_mult__": "1.0", 
        "__shape__": "(64,)", 
        "__storage_type__": "0", 
        "__wd_mult__": "1.0"
      }, 
      "inputs": []
    }, 
    {
      "op": "null", 
      "name": "layer1_0_batchnorm0_running_var", 
      "attrs": {
        "__dtype__": "0", 
        "__init__": "ones", 
        "__lr_mult__": "1.0", 
        "__shape__": "(64,)", 
        "__storage_type__": "0", 
        "__wd_mult__": "1.0"
      }, 
      "inputs": []
    }, 
    {
      "op": "BatchNorm", 
      "name": "layer1_0_batchnorm0_fwd", 
      "attrs": {
        "axis": "1", 
        "eps": "1e-05", 
        "fix_gamma": "False", 
        "momentum": "0.9", 
        "use_global_stats": "False"
      }, 
      "inputs": [[16, 0, 0], [17, 0, 0], [18, 0, 0], [19, 0, 1], [20, 0, 1]]
    }, 
    {
      "op": "Activation", 
      "name": "layer1_0_relu0_fwd", 
      "attrs": {"act_type": "relu"}, 
      "inputs": [[21, 0, 0]]
    }, 
    {
      "op": "null", 
      "name": "layer1_0_conv1_weight", 
      "attrs": {
        "__dtype__": "0", 
        "__lr_mult__": "1.0", 
        "__shape__": "(64, 64, 1, 3, 3)", 
        "__storage_type__": "0", 
        "__wd_mult__": "1.0"
      }, 
      "inputs": []
    }, 
    {
      "op": "Convolution", 
      "name": "layer1_0_conv1_fwd", 
      "attrs": {
        "dilate": "(1, 1, 1)", 
        "kernel": "(1, 3, 3)", 
        "layout": "NCDHW", 
        "no_bias": "True", 
        "num_filter": "64", 
        "num_group": "1", 
        "pad": "(0, 1, 1)", 
        "stride": "(1, 1, 1)"
      }, 
      "inputs": [[22, 0, 0], [23, 0, 0]]
    }, 
    {
      "op": "null", 
      "name": "layer1_0_batchnorm1_gamma", 
      "attrs": {
        "__dtype__": "0", 
        "__init__": "ones", 
        "__lr_mult__": "1.0", 
        "__shape__": "(64,)", 
        "__storage_type__": "0", 
        "__wd_mult__": "1.0"
      }, 
      "inputs": []
    }, 
    {
      "op": "null", 
      "name": "layer1_0_batchnorm1_beta", 
      "attrs": {
        "__dtype__": "0", 
        "__init__": "zeros", 
        "__lr_mult__": "1.0", 
        "__shape__": "(64,)", 
        "__storage_type__": "0", 
        "__wd_mult__": "1.0"
      }, 
      "inputs": []
    }, 
    {
      "op": "null", 
      "name": "layer1_0_batchnorm1_running_mean", 
      "attrs": {
        "__dtype__": "0", 
        "__init__": "zeros", 
        "__lr_mult__": "1.0", 
        "__shape__": "(64,)", 
        "__storage_type__": "0", 
        "__wd_mult__": "1.0"
      }, 
      "inputs": []
    }, 
    {
      "op": "null", 
      "name": "layer1_0_batchnorm1_running_var", 
      "attrs": {
        "__dtype__": "0", 
        "__init__": "ones", 
        "__lr_mult__": "1.0", 
        "__shape__": "(64,)", 
        "__storage_type__": "0", 
        "__wd_mult__": "1.0"
      }, 
      "inputs": []
    }, 
    {
      "op": "BatchNorm", 
      "name": "layer1_0_batchnorm1_fwd", 
      "attrs": {
        "axis": "1", 
        "eps": "1e-05", 
        "fix_gamma": "False", 
        "momentum": "0.9", 
        "use_global_stats": "False"
      }, 
      "inputs": [[24, 0, 0], [25, 0, 0], [26, 0, 0], [27, 0, 1], [28, 0, 1]]
    }, 
    {
      "op": "Activation", 
      "name": "layer1_0_relu0_fwd", 
      "attrs": {"act_type": "relu"}, 
      "inputs": [[29, 0, 0]]
    }, 
    {
      "op": "null", 
      "name": "layer1_0_conv2_weight", 
      "attrs": {
        "__dtype__": "0", 
        "__lr_mult__": "1.0", 
        "__shape__": "(256, 64, 1, 1, 1)", 
        "__storage_type__": "0", 
        "__wd_mult__": "1.0"
      }, 
      "inputs": []
    }, 
    {
      "op": "Convolution", 
      "name": "layer1_0_conv2_fwd", 
      "attrs": {
        "dilate": "(1, 1, 1)", 
        "kernel": "(1, 1, 1)", 
        "layout": "NCDHW", 
        "no_bias": "True", 
        "num_filter": "256", 
        "num_group": "1", 
        "pad": "(0, 0, 0)", 
        "stride": "(1, 1, 1)"
      }, 
      "inputs": [[30, 0, 0], [31, 0, 0]]
    }, 
    {
      "op": "null", 
      "name": "layer1_0_batchnorm2_gamma", 
      "attrs": {
        "__dtype__": "0", 
        "__init__": "ones", 
        "__lr_mult__": "1.0", 
        "__shape__": "(256,)", 
        "__storage_type__": "0", 
        "__wd_mult__": "1.0"
      }, 
      "inputs": []
    }, 
    {
      "op": "null", 
      "name": "layer1_0_batchnorm2_beta", 
      "attrs": {
        "__dtype__": "0", 
        "__init__": "zeros", 
        "__lr_mult__": "1.0", 
        "__shape__": "(256,)", 
        "__storage_type__": "0", 
        "__wd_mult__": "1.0"
      }, 
      "inputs": []
    }, 
    {
      "op": "null", 
      "name": "layer1_0_batchnorm2_running_mean", 
      "attrs": {
        "__dtype__": "0", 
        "__init__": "zeros", 
        "__lr_mult__": "1.0", 
        "__shape__": "(256,)", 
        "__storage_type__": "0", 
        "__wd_mult__": "1.0"
      }, 
      "inputs": []
    }, 
    {
      "op": "null", 
      "name": "layer1_0_batchnorm2_running_var", 
      "attrs": {
        "__dtype__": "0", 
        "__init__": "ones", 
        "__lr_mult__": "1.0", 
        "__shape__": "(256,)", 
        "__storage_type__": "0", 
        "__wd_mult__": "1.0"
      }, 
      "inputs": []
    }, 
    {
      "op": "BatchNorm", 
      "name": "layer1_0_batchnorm2_fwd", 
      "attrs": {
        "axis": "1", 
        "eps": "1e-05", 
        "fix_gamma": "False", 
        "momentum": "0.9", 
        "use_global_stats": "False"
      }, 
      "inputs": [[32, 0, 0], [33, 0, 0], [34, 0, 0], [35, 0, 1], [36, 0, 1]]
    }, 
    {
      "op": "null", 
      "name": "layer1_downsample_conv0_weight", 
      "attrs": {
        "__dtype__": "0", 
        "__lr_mult__": "1.0", 
        "__shape__": "(256, 64, 1, 1, 1)", 
        "__storage_type__": "0", 
        "__wd_mult__": "1.0"
      }, 
      "inputs": []
    }, 
    {
      "op": "Convolution", 
      "name": "layer1_downsample_conv0_fwd", 
      "attrs": {
        "dilate": "(1, 1, 1)", 
        "kernel": "(1, 1, 1)", 
        "layout": "NCDHW", 
        "no_bias": "True", 
        "num_filter": "256", 
        "num_group": "1", 
        "pad": "(0, 0, 0)", 
        "stride": "(1, 1, 1)"
      }, 
      "inputs": [[14, 0, 0], [38, 0, 0]]
    }, 
    {
      "op": "null", 
      "name": "layer1_downsample_batchnorm0_gamma", 
      "attrs": {
        "__dtype__": "0", 
        "__init__": "ones", 
        "__lr_mult__": "1.0", 
        "__shape__": "(256,)", 
        "__storage_type__": "0", 
        "__wd_mult__": "1.0"
      }, 
      "inputs": []
    }, 
    {
      "op": "null", 
      "name": "layer1_downsample_batchnorm0_beta", 
      "attrs": {
        "__dtype__": "0", 
        "__init__": "zeros", 
        "__lr_mult__": "1.0", 
        "__shape__": "(256,)", 
        "__storage_type__": "0", 
        "__wd_mult__": "1.0"
      }, 
      "inputs": []
    }, 
    {
      "op": "null", 
      "name": "layer1_downsample_batchnorm0_running_mean", 
      "attrs": {
        "__dtype__": "0", 
        "__init__": "zeros", 
        "__lr_mult__": "1.0", 
        "__shape__": "(256,)", 
        "__storage_type__": "0", 
        "__wd_mult__": "1.0"
      }, 
      "inputs": []
    }, 
    {
      "op": "null", 
      "name": "layer1_downsample_batchnorm0_running_var", 
      "attrs": {
        "__dtype__": "0", 
        "__init__": "ones", 
        "__lr_mult__": "1.0", 
        "__shape__": "(256,)", 
        "__storage_type__": "0", 
        "__wd_mult__": "1.0"
      }, 
      "inputs": []
    }, 
    {
      "op": "BatchNorm", 
      "name": "layer1_downsample_batchnorm0_fwd", 
      "attrs": {
        "axis": "1", 
        "eps": "1e-05", 
        "fix_gamma": "False", 
        "momentum": "0.9", 
        "use_global_stats": "True"
      }, 
      "inputs": [[39, 0, 0], [40, 0, 0], [41, 0, 0], [42, 0, 1], [43, 0, 1]]
    }, 
    {
      "op": "elemwise_add", 
      "name": "layer1_bottleneck0__plus0", 
      "inputs": [[37, 0, 0], [44, 0, 0]]
    }, 
    {
      "op": "Activation", 
      "name": "layer1_bottleneck0_activation0", 
      "attrs": {"act_type": "relu"}, 
      "inputs": [[45, 0, 0]]
    }, 
    {
      "op": "null", 
      "name": "layer1_1_conv0_weight", 
      "attrs": {
        "__dtype__": "0", 
        "__lr_mult__": "1.0", 
        "__shape__": "(64, 256, 3, 1, 1)", 
        "__storage_type__": "0", 
        "__wd_mult__": "1.0"
      }, 
      "inputs": []
    }, 
    {
      "op": "Convolution", 
      "name": "layer1_1_conv0_fwd", 
      "attrs": {
        "dilate": "(1, 1, 1)", 
        "kernel": "(3, 1, 1)", 
        "layout": "NCDHW", 
        "no_bias": "True", 
        "num_filter": "64", 
        "num_group": "1", 
        "pad": "(1, 0, 0)", 
        "stride": "(1, 1, 1)"
      }, 
      "inputs": [[46, 0, 0], [47, 0, 0]]
    }, 
    {
      "op": "null", 
      "name": "layer1_1_batchnorm0_gamma", 
      "attrs": {
        "__dtype__": "0", 
        "__init__": "ones", 
        "__lr_mult__": "1.0", 
        "__shape__": "(64,)", 
        "__storage_type__": "0", 
        "__wd_mult__": "1.0"
      }, 
      "inputs": []
    }, 
    {
      "op": "null", 
      "name": "layer1_1_batchnorm0_beta", 
      "attrs": {
        "__dtype__": "0", 
        "__init__": "zeros", 
        "__lr_mult__": "1.0", 
        "__shape__": "(64,)", 
        "__storage_type__": "0", 
        "__wd_mult__": "1.0"
      }, 
      "inputs": []
    }, 
    {
      "op": "null", 
      "name": "layer1_1_batchnorm0_running_mean", 
      "attrs": {
        "__dtype__": "0", 
        "__init__": "zeros", 
        "__lr_mult__": "1.0", 
        "__shape__": "(64,)", 
        "__storage_type__": "0", 
        "__wd_mult__": "1.0"
      }, 
      "inputs": []
    }, 
    {
      "op": "null", 
      "name": "layer1_1_batchnorm0_running_var", 
      "attrs": {
        "__dtype__": "0", 
        "__init__": "ones", 
        "__lr_mult__": "1.0", 
        "__shape__": "(64,)", 
        "__storage_type__": "0", 
        "__wd_mult__": "1.0"
      }, 
      "inputs": []
    }, 
    {
      "op": "BatchNorm", 
      "name": "layer1_1_batchnorm0_fwd", 
      "attrs": {
        "axis": "1", 
        "eps": "1e-05", 
        "fix_gamma": "False", 
        "momentum": "0.9", 
        "use_global_stats": "False"
      }, 
      "inputs": [[48, 0, 0], [49, 0, 0], [50, 0, 0], [51, 0, 1], [52, 0, 1]]
    }, 
    {
      "op": "Activation", 
      "name": "layer1_1_relu0_fwd", 
      "attrs": {"act_type": "relu"}, 
      "inputs": [[53, 0, 0]]
    }, 
    {
      "op": "null", 
      "name": "layer1_1_conv1_weight", 
      "attrs": {
        "__dtype__": "0", 
        "__lr_mult__": "1.0", 
        "__shape__": "(64, 64, 1, 3, 3)", 
        "__storage_type__": "0", 
        "__wd_mult__": "1.0"
      }, 
      "inputs": []
    }, 
    {
      "op": "Convolution", 
      "name": "layer1_1_conv1_fwd", 
      "attrs": {
        "dilate": "(1, 1, 1)", 
        "kernel": "(1, 3, 3)", 
        "layout": "NCDHW", 
        "no_bias": "True", 
        "num_filter": "64", 
        "num_group": "1", 
        "pad": "(0, 1, 1)", 
        "stride": "(1, 1, 1)"
      }, 
      "inputs": [[54, 0, 0], [55, 0, 0]]
    }, 
    {
      "op": "null", 
      "name": "layer1_1_batchnorm1_gamma", 
      "attrs": {
        "__dtype__": "0", 
        "__init__": "ones", 
        "__lr_mult__": "1.0", 
        "__shape__": "(64,)", 
        "__storage_type__": "0", 
        "__wd_mult__": "1.0"
      }, 
      "inputs": []
    }, 
    {
      "op": "null", 
      "name": "layer1_1_batchnorm1_beta", 
      "attrs": {
        "__dtype__": "0", 
        "__init__": "zeros", 
        "__lr_mult__": "1.0", 
        "__shape__": "(64,)", 
        "__storage_type__": "0", 
        "__wd_mult__": "1.0"
      }, 
      "inputs": []
    }, 
    {
      "op": "null", 
      "name": "layer1_1_batchnorm1_running_mean", 
      "attrs": {
        "__dtype__": "0", 
        "__init__": "zeros", 
        "__lr_mult__": "1.0", 
        "__shape__": "(64,)", 
        "__storage_type__": "0", 
        "__wd_mult__": "1.0"
      }, 
      "inputs": []
    }, 
    {
      "op": "null", 
      "name": "layer1_1_batchnorm1_running_var", 
      "attrs": {
        "__dtype__": "0", 
        "__init__": "ones", 
        "__lr_mult__": "1.0", 
        "__shape__": "(64,)", 
        "__storage_type__": "0", 
        "__wd_mult__": "1.0"
      }, 
      "inputs": []
    }, 
    {
      "op": "BatchNorm", 
      "name": "layer1_1_batchnorm1_fwd", 
      "attrs": {
        "axis": "1", 
        "eps": "1e-05", 
        "fix_gamma": "False", 
        "momentum": "0.9", 
        "use_global_stats": "False"
      }, 
      "inputs": [[56, 0, 0], [57, 0, 0], [58, 0, 0], [59, 0, 1], [60, 0, 1]]
    }, 
    {
      "op": "Activation", 
      "name": "layer1_1_relu0_fwd", 
      "attrs": {"act_type": "relu"}, 
      "inputs": [[61, 0, 0]]
    }, 
    {
      "op": "null", 
      "name": "layer1_1_conv2_weight", 
      "attrs": {
        "__dtype__": "0", 
        "__lr_mult__": "1.0", 
        "__shape__": "(256, 64, 1, 1, 1)", 
        "__storage_type__": "0", 
        "__wd_mult__": "1.0"
      }, 
      "inputs": []
    }, 
    {
      "op": "Convolution", 
      "name": "layer1_1_conv2_fwd", 
      "attrs": {
        "dilate": "(1, 1, 1)", 
        "kernel": "(1, 1, 1)", 
        "layout": "NCDHW", 
        "no_bias": "True", 
        "num_filter": "256", 
        "num_group": "1", 
        "pad": "(0, 0, 0)", 
        "stride": "(1, 1, 1)"
      }, 
      "inputs": [[62, 0, 0], [63, 0, 0]]
    }, 
    {
      "op": "null", 
      "name": "layer1_1_batchnorm2_gamma", 
      "attrs": {
        "__dtype__": "0", 
        "__init__": "ones", 
        "__lr_mult__": "1.0", 
        "__shape__": "(256,)", 
        "__storage_type__": "0", 
        "__wd_mult__": "1.0"
      }, 
      "inputs": []
    }, 
    {
      "op": "null", 
      "name": "layer1_1_batchnorm2_beta", 
      "attrs": {
        "__dtype__": "0", 
        "__init__": "zeros", 
        "__lr_mult__": "1.0", 
        "__shape__": "(256,)", 
        "__storage_type__": "0", 
        "__wd_mult__": "1.0"
      }, 
      "inputs": []
    }, 
    {
      "op": "null", 
      "name": "layer1_1_batchnorm2_running_mean", 
      "attrs": {
        "__dtype__": "0", 
        "__init__": "zeros", 
        "__lr_mult__": "1.0", 
        "__shape__": "(256,)", 
        "__storage_type__": "0", 
        "__wd_mult__": "1.0"
      }, 
      "inputs": []
    }, 
    {
      "op": "null", 
      "name": "layer1_1_batchnorm2_running_var", 
      "attrs": {
        "__dtype__": "0", 
        "__init__": "ones", 
        "__lr_mult__": "1.0", 
        "__shape__": "(256,)", 
        "__storage_type__": "0", 
        "__wd_mult__": "1.0"
      }, 
      "inputs": []
    }, 
    {
      "op": "BatchNorm", 
      "name": "layer1_1_batchnorm2_fwd", 
      "attrs": {
        "axis": "1", 
        "eps": "1e-05", 
        "fix_gamma": "False", 
        "momentum": "0.9", 
        "use_global_stats": "False"
      }, 
      "inputs": [[64, 0, 0], [65, 0, 0], [66, 0, 0], [67, 0, 1], [68, 0, 1]]
    }, 
    {
      "op": "elemwise_add", 
      "name": "layer1_bottleneck1__plus0", 
      "inputs": [[69, 0, 0], [46, 0, 0]]
    }, 
    {
      "op": "Activation", 
      "name": "layer1_bottleneck1_activation0", 
      "attrs": {"act_type": "relu"}, 
      "inputs": [[70, 0, 0]]
    }, 
    {
      "op": "null", 
      "name": "layer1_2_conv0_weight", 
      "attrs": {
        "__dtype__": "0", 
        "__lr_mult__": "1.0", 
        "__shape__": "(64, 256, 3, 1, 1)", 
        "__storage_type__": "0", 
        "__wd_mult__": "1.0"
      }, 
      "inputs": []
    }, 
    {
      "op": "Convolution", 
      "name": "layer1_2_conv0_fwd", 
      "attrs": {
        "dilate": "(1, 1, 1)", 
        "kernel": "(3, 1, 1)", 
        "layout": "NCDHW", 
        "no_bias": "True", 
        "num_filter": "64", 
        "num_group": "1", 
        "pad": "(1, 0, 0)", 
        "stride": "(1, 1, 1)"
      }, 
      "inputs": [[71, 0, 0], [72, 0, 0]]
    }, 
    {
      "op": "null", 
      "name": "layer1_2_batchnorm0_gamma", 
      "attrs": {
        "__dtype__": "0", 
        "__init__": "ones", 
        "__lr_mult__": "1.0", 
        "__shape__": "(64,)", 
        "__storage_type__": "0", 
        "__wd_mult__": "1.0"
      }, 
      "inputs": []
    }, 
    {
      "op": "null", 
      "name": "layer1_2_batchnorm0_beta", 
      "attrs": {
        "__dtype__": "0", 
        "__init__": "zeros", 
        "__lr_mult__": "1.0", 
        "__shape__": "(64,)", 
        "__storage_type__": "0", 
        "__wd_mult__": "1.0"
      }, 
      "inputs": []
    }, 
    {
      "op": "null", 
      "name": "layer1_2_batchnorm0_running_mean", 
      "attrs": {
        "__dtype__": "0", 
        "__init__": "zeros", 
        "__lr_mult__": "1.0", 
        "__shape__": "(64,)", 
        "__storage_type__": "0", 
        "__wd_mult__": "1.0"
      }, 
      "inputs": []
    }, 
    {
      "op": "null", 
      "name": "layer1_2_batchnorm0_running_var", 
      "attrs": {
        "__dtype__": "0", 
        "__init__": "ones", 
        "__lr_mult__": "1.0", 
        "__shape__": "(64,)", 
        "__storage_type__": "0", 
        "__wd_mult__": "1.0"
      }, 
      "inputs": []
    }, 
    {
      "op": "BatchNorm", 
      "name": "layer1_2_batchnorm0_fwd", 
      "attrs": {
        "axis": "1", 
        "eps": "1e-05", 
        "fix_gamma": "False", 
        "momentum": "0.9", 
        "use_global_stats": "False"
      }, 
      "inputs": [[73, 0, 0], [74, 0, 0], [75, 0, 0], [76, 0, 1], [77, 0, 1]]
    }, 
    {
      "op": "Activation", 
      "name": "layer1_2_relu0_fwd", 
      "attrs": {"act_type": "relu"}, 
      "inputs": [[78, 0, 0]]
    }, 
    {
      "op": "null", 
      "name": "layer1_2_conv1_weight", 
      "attrs": {
        "__dtype__": "0", 
        "__lr_mult__": "1.0", 
        "__shape__": "(64, 64, 1, 3, 3)", 
        "__storage_type__": "0", 
        "__wd_mult__": "1.0"
      }, 
      "inputs": []
    }, 
    {
      "op": "Convolution", 
      "name": "layer1_2_conv1_fwd", 
      "attrs": {
        "dilate": "(1, 1, 1)", 
        "kernel": "(1, 3, 3)", 
        "layout": "NCDHW", 
        "no_bias": "True", 
        "num_filter": "64", 
        "num_group": "1", 
        "pad": "(0, 1, 1)", 
        "stride": "(1, 1, 1)"
      }, 
      "inputs": [[79, 0, 0], [80, 0, 0]]
    }, 
    {
      "op": "null", 
      "name": "layer1_2_batchnorm1_gamma", 
      "attrs": {
        "__dtype__": "0", 
        "__init__": "ones", 
        "__lr_mult__": "1.0", 
        "__shape__": "(64,)", 
        "__storage_type__": "0", 
        "__wd_mult__": "1.0"
      }, 
      "inputs": []
    }, 
    {
      "op": "null", 
      "name": "layer1_2_batchnorm1_beta", 
      "attrs": {
        "__dtype__": "0", 
        "__init__": "zeros", 
        "__lr_mult__": "1.0", 
        "__shape__": "(64,)", 
        "__storage_type__": "0", 
        "__wd_mult__": "1.0"
      }, 
      "inputs": []
    }, 
    {
      "op": "null", 
      "name": "layer1_2_batchnorm1_running_mean", 
      "attrs": {
        "__dtype__": "0", 
        "__init__": "zeros", 
        "__lr_mult__": "1.0", 
        "__shape__": "(64,)", 
        "__storage_type__": "0", 
        "__wd_mult__": "1.0"
      }, 
      "inputs": []
    }, 
    {
      "op": "null", 
      "name": "layer1_2_batchnorm1_running_var", 
      "attrs": {
        "__dtype__": "0", 
        "__init__": "ones", 
        "__lr_mult__": "1.0", 
        "__shape__": "(64,)", 
        "__storage_type__": "0", 
        "__wd_mult__": "1.0"
      }, 
      "inputs": []
    }, 
    {
      "op": "BatchNorm", 
      "name": "layer1_2_batchnorm1_fwd", 
      "attrs": {
        "axis": "1", 
        "eps": "1e-05", 
        "fix_gamma": "False", 
        "momentum": "0.9", 
        "use_global_stats": "False"
      }, 
      "inputs": [[81, 0, 0], [82, 0, 0], [83, 0, 0], [84, 0, 1], [85, 0, 1]]
    }, 
    {
      "op": "Activation", 
      "name": "layer1_2_relu0_fwd", 
      "attrs": {"act_type": "relu"}, 
      "inputs": [[86, 0, 0]]
    }, 
    {
      "op": "null", 
      "name": "layer1_2_conv2_weight", 
      "attrs": {
        "__dtype__": "0", 
        "__lr_mult__": "1.0", 
        "__shape__": "(256, 64, 1, 1, 1)", 
        "__storage_type__": "0", 
        "__wd_mult__": "1.0"
      }, 
      "inputs": []
    }, 
    {
      "op": "Convolution", 
      "name": "layer1_2_conv2_fwd", 
      "attrs": {
        "dilate": "(1, 1, 1)", 
        "kernel": "(1, 1, 1)", 
        "layout": "NCDHW", 
        "no_bias": "True", 
        "num_filter": "256", 
        "num_group": "1", 
        "pad": "(0, 0, 0)", 
        "stride": "(1, 1, 1)"
      }, 
      "inputs": [[87, 0, 0], [88, 0, 0]]
    }, 
    {
      "op": "null", 
      "name": "layer1_2_batchnorm2_gamma", 
      "attrs": {
        "__dtype__": "0", 
        "__init__": "ones", 
        "__lr_mult__": "1.0", 
        "__shape__": "(256,)", 
        "__storage_type__": "0", 
        "__wd_mult__": "1.0"
      }, 
      "inputs": []
    }, 
    {
      "op": "null", 
      "name": "layer1_2_batchnorm2_beta", 
      "attrs": {
        "__dtype__": "0", 
        "__init__": "zeros", 
        "__lr_mult__": "1.0", 
        "__shape__": "(256,)", 
        "__storage_type__": "0", 
        "__wd_mult__": "1.0"
      }, 
      "inputs": []
    }, 
    {
      "op": "null", 
      "name": "layer1_2_batchnorm2_running_mean", 
      "attrs": {
        "__dtype__": "0", 
        "__init__": "zeros", 
        "__lr_mult__": "1.0", 
        "__shape__": "(256,)", 
        "__storage_type__": "0", 
        "__wd_mult__": "1.0"
      }, 
      "inputs": []
    }, 
    {
      "op": "null", 
      "name": "layer1_2_batchnorm2_running_var", 
      "attrs": {
        "__dtype__": "0", 
        "__init__": "ones", 
        "__lr_mult__": "1.0", 
        "__shape__": "(256,)", 
        "__storage_type__": "0", 
        "__wd_mult__": "1.0"
      }, 
      "inputs": []
    }, 
    {
      "op": "BatchNorm", 
      "name": "layer1_2_batchnorm2_fwd", 
      "attrs": {
        "axis": "1", 
        "eps": "1e-05", 
        "fix_gamma": "False", 
        "momentum": "0.9", 
        "use_global_stats": "False"
      }, 
      "inputs": [[89, 0, 0], [90, 0, 0], [91, 0, 0], [92, 0, 1], [93, 0, 1]]
    }, 
    {
      "op": "elemwise_add", 
      "name": "layer1_bottleneck2__plus0", 
      "inputs": [[94, 0, 0], [71, 0, 0]]
    }, 
    {
      "op": "Activation", 
      "name": "layer1_bottleneck2_activation0", 
      "attrs": {"act_type": "relu"}, 
      "inputs": [[95, 0, 0]]
    }, 
    {
      "op": "Pooling", 
      "name": "pool1_fwd", 
      "attrs": {
        "global_pool": "False", 
        "kernel": "(2, 1, 1)", 
        "layout": "NCDHW", 
        "pad": "(0, 0, 0)", 
        "pool_type": "max", 
        "pooling_convention": "valid", 
        "stride": "(2, 1, 1)"
      }, 
      "inputs": [[96, 0, 0]]
    }, 
    {
      "op": "null", 
      "name": "layer2_0_conv0_weight", 
      "attrs": {
        "__dtype__": "0", 
        "__lr_mult__": "1.0", 
        "__shape__": "(128, 256, 3, 1, 1)", 
        "__storage_type__": "0", 
        "__wd_mult__": "1.0"
      }, 
      "inputs": []
    }, 
    {
      "op": "Convolution", 
      "name": "layer2_0_conv0_fwd", 
      "attrs": {
        "dilate": "(1, 1, 1)", 
        "kernel": "(3, 1, 1)", 
        "layout": "NCDHW", 
        "no_bias": "True", 
        "num_filter": "128", 
        "num_group": "1", 
        "pad": "(1, 0, 0)", 
        "stride": "(1, 1, 1)"
      }, 
      "inputs": [[97, 0, 0], [98, 0, 0]]
    }, 
    {
      "op": "null", 
      "name": "layer2_0_batchnorm0_gamma", 
      "attrs": {
        "__dtype__": "0", 
        "__init__": "ones", 
        "__lr_mult__": "1.0", 
        "__shape__": "(128,)", 
        "__storage_type__": "0", 
        "__wd_mult__": "1.0"
      }, 
      "inputs": []
    }, 
    {
      "op": "null", 
      "name": "layer2_0_batchnorm0_beta", 
      "attrs": {
        "__dtype__": "0", 
        "__init__": "zeros", 
        "__lr_mult__": "1.0", 
        "__shape__": "(128,)", 
        "__storage_type__": "0", 
        "__wd_mult__": "1.0"
      }, 
      "inputs": []
    }, 
    {
      "op": "null", 
      "name": "layer2_0_batchnorm0_running_mean", 
      "attrs": {
        "__dtype__": "0", 
        "__init__": "zeros", 
        "__lr_mult__": "1.0", 
        "__shape__": "(128,)", 
        "__storage_type__": "0", 
        "__wd_mult__": "1.0"
      }, 
      "inputs": []
    }, 
    {
      "op": "null", 
      "name": "layer2_0_batchnorm0_running_var", 
      "attrs": {
        "__dtype__": "0", 
        "__init__": "ones", 
        "__lr_mult__": "1.0", 
        "__shape__": "(128,)", 
        "__storage_type__": "0", 
        "__wd_mult__": "1.0"
      }, 
      "inputs": []
    }, 
    {
      "op": "BatchNorm", 
      "name": "layer2_0_batchnorm0_fwd", 
      "attrs": {
        "axis": "1", 
        "eps": "1e-05", 
        "fix_gamma": "False", 
        "momentum": "0.9", 
        "use_global_stats": "False"
      }, 
      "inputs": [[99, 0, 0], [100, 0, 0], [101, 0, 0], [102, 0, 1], [103, 0, 1]]
    }, 
    {
      "op": "Activation", 
      "name": "layer2_0_relu0_fwd", 
      "attrs": {"act_type": "relu"}, 
      "inputs": [[104, 0, 0]]
    }, 
    {
      "op": "null", 
      "name": "layer2_0_conv1_weight", 
      "attrs": {
        "__dtype__": "0", 
        "__lr_mult__": "1.0", 
        "__shape__": "(128, 128, 1, 3, 3)", 
        "__storage_type__": "0", 
        "__wd_mult__": "1.0"
      }, 
      "inputs": []
    }, 
    {
      "op": "Convolution", 
      "name": "layer2_0_conv1_fwd", 
      "attrs": {
        "dilate": "(1, 1, 1)", 
        "kernel": "(1, 3, 3)", 
        "layout": "NCDHW", 
        "no_bias": "True", 
        "num_filter": "128", 
        "num_group": "1", 
        "pad": "(0, 1, 1)", 
        "stride": "(1, 2, 2)"
      }, 
      "inputs": [[105, 0, 0], [106, 0, 0]]
    }, 
    {
      "op": "null", 
      "name": "layer2_0_batchnorm1_gamma", 
      "attrs": {
        "__dtype__": "0", 
        "__init__": "ones", 
        "__lr_mult__": "1.0", 
        "__shape__": "(128,)", 
        "__storage_type__": "0", 
        "__wd_mult__": "1.0"
      }, 
      "inputs": []
    }, 
    {
      "op": "null", 
      "name": "layer2_0_batchnorm1_beta", 
      "attrs": {
        "__dtype__": "0", 
        "__init__": "zeros", 
        "__lr_mult__": "1.0", 
        "__shape__": "(128,)", 
        "__storage_type__": "0", 
        "__wd_mult__": "1.0"
      }, 
      "inputs": []
    }, 
    {
      "op": "null", 
      "name": "layer2_0_batchnorm1_running_mean", 
      "attrs": {
        "__dtype__": "0", 
        "__init__": "zeros", 
        "__lr_mult__": "1.0", 
        "__shape__": "(128,)", 
        "__storage_type__": "0", 
        "__wd_mult__": "1.0"
      }, 
      "inputs": []
    }, 
    {
      "op": "null", 
      "name": "layer2_0_batchnorm1_running_var", 
      "attrs": {
        "__dtype__": "0", 
        "__init__": "ones", 
        "__lr_mult__": "1.0", 
        "__shape__": "(128,)", 
        "__storage_type__": "0", 
        "__wd_mult__": "1.0"
      }, 
      "inputs": []
    }, 
    {
      "op": "BatchNorm", 
      "name": "layer2_0_batchnorm1_fwd", 
      "attrs": {
        "axis": "1", 
        "eps": "1e-05", 
        "fix_gamma": "False", 
        "momentum": "0.9", 
        "use_global_stats": "False"
      }, 
      "inputs": [[107, 0, 0], [108, 0, 0], [109, 0, 0], [110, 0, 1], [111, 0, 1]]
    }, 
    {
      "op": "Activation", 
      "name": "layer2_0_relu0_fwd", 
      "attrs": {"act_type": "relu"}, 
      "inputs": [[112, 0, 0]]
    }, 
    {
      "op": "null", 
      "name": "layer2_0_conv2_weight", 
      "attrs": {
        "__dtype__": "0", 
        "__lr_mult__": "1.0", 
        "__shape__": "(512, 128, 1, 1, 1)", 
        "__storage_type__": "0", 
        "__wd_mult__": "1.0"
      }, 
      "inputs": []
    }, 
    {
      "op": "Convolution", 
      "name": "layer2_0_conv2_fwd", 
      "attrs": {
        "dilate": "(1, 1, 1)", 
        "kernel": "(1, 1, 1)", 
        "layout": "NCDHW", 
        "no_bias": "True", 
        "num_filter": "512", 
        "num_group": "1", 
        "pad": "(0, 0, 0)", 
        "stride": "(1, 1, 1)"
      }, 
      "inputs": [[113, 0, 0], [114, 0, 0]]
    }, 
    {
      "op": "null", 
      "name": "layer2_0_batchnorm2_gamma", 
      "attrs": {
        "__dtype__": "0", 
        "__init__": "ones", 
        "__lr_mult__": "1.0", 
        "__shape__": "(512,)", 
        "__storage_type__": "0", 
        "__wd_mult__": "1.0"
      }, 
      "inputs": []
    }, 
    {
      "op": "null", 
      "name": "layer2_0_batchnorm2_beta", 
      "attrs": {
        "__dtype__": "0", 
        "__init__": "zeros", 
        "__lr_mult__": "1.0", 
        "__shape__": "(512,)", 
        "__storage_type__": "0", 
        "__wd_mult__": "1.0"
      }, 
      "inputs": []
    }, 
    {
      "op": "null", 
      "name": "layer2_0_batchnorm2_running_mean", 
      "attrs": {
        "__dtype__": "0", 
        "__init__": "zeros", 
        "__lr_mult__": "1.0", 
        "__shape__": "(512,)", 
        "__storage_type__": "0", 
        "__wd_mult__": "1.0"
      }, 
      "inputs": []
    }, 
    {
      "op": "null", 
      "name": "layer2_0_batchnorm2_running_var", 
      "attrs": {
        "__dtype__": "0", 
        "__init__": "ones", 
        "__lr_mult__": "1.0", 
        "__shape__": "(512,)", 
        "__storage_type__": "0", 
        "__wd_mult__": "1.0"
      }, 
      "inputs": []
    }, 
    {
      "op": "BatchNorm", 
      "name": "layer2_0_batchnorm2_fwd", 
      "attrs": {
        "axis": "1", 
        "eps": "1e-05", 
        "fix_gamma": "False", 
        "momentum": "0.9", 
        "use_global_stats": "False"
      }, 
      "inputs": [[115, 0, 0], [116, 0, 0], [117, 0, 0], [118, 0, 1], [119, 0, 1]]
    }, 
    {
      "op": "null", 
      "name": "layer2_downsample_conv0_weight", 
      "attrs": {
        "__dtype__": "0", 
        "__lr_mult__": "1.0", 
        "__shape__": "(512, 256, 1, 1, 1)", 
        "__storage_type__": "0", 
        "__wd_mult__": "1.0"
      }, 
      "inputs": []
    }, 
    {
      "op": "Convolution", 
      "name": "layer2_downsample_conv0_fwd", 
      "attrs": {
        "dilate": "(1, 1, 1)", 
        "kernel": "(1, 1, 1)", 
        "layout": "NCDHW", 
        "no_bias": "True", 
        "num_filter": "512", 
        "num_group": "1", 
        "pad": "(0, 0, 0)", 
        "stride": "(1, 2, 2)"
      }, 
      "inputs": [[97, 0, 0], [121, 0, 0]]
    }, 
    {
      "op": "null", 
      "name": "layer2_downsample_batchnorm0_gamma", 
      "attrs": {
        "__dtype__": "0", 
        "__init__": "ones", 
        "__lr_mult__": "1.0", 
        "__shape__": "(512,)", 
        "__storage_type__": "0", 
        "__wd_mult__": "1.0"
      }, 
      "inputs": []
    }, 
    {
      "op": "null", 
      "name": "layer2_downsample_batchnorm0_beta", 
      "attrs": {
        "__dtype__": "0", 
        "__init__": "zeros", 
        "__lr_mult__": "1.0", 
        "__shape__": "(512,)", 
        "__storage_type__": "0", 
        "__wd_mult__": "1.0"
      }, 
      "inputs": []
    }, 
    {
      "op": "null", 
      "name": "layer2_downsample_batchnorm0_running_mean", 
      "attrs": {
        "__dtype__": "0", 
        "__init__": "zeros", 
        "__lr_mult__": "1.0", 
        "__shape__": "(512,)", 
        "__storage_type__": "0", 
        "__wd_mult__": "1.0"
      }, 
      "inputs": []
    }, 
    {
      "op": "null", 
      "name": "layer2_downsample_batchnorm0_running_var", 
      "attrs": {
        "__dtype__": "0", 
        "__init__": "ones", 
        "__lr_mult__": "1.0", 
        "__shape__": "(512,)", 
        "__storage_type__": "0", 
        "__wd_mult__": "1.0"
      }, 
      "inputs": []
    }, 
    {
      "op": "BatchNorm", 
      "name": "layer2_downsample_batchnorm0_fwd", 
      "attrs": {
        "axis": "1", 
        "eps": "1e-05", 
        "fix_gamma": "False", 
        "momentum": "0.9", 
        "use_global_stats": "True"
      }, 
      "inputs": [[122, 0, 0], [123, 0, 0], [124, 0, 0], [125, 0, 1], [126, 0, 1]]
    }, 
    {
      "op": "elemwise_add", 
      "name": "layer2_bottleneck0__plus0", 
      "inputs": [[120, 0, 0], [127, 0, 0]]
    }, 
    {
      "op": "Activation", 
      "name": "layer2_bottleneck0_activation0", 
      "attrs": {"act_type": "relu"}, 
      "inputs": [[128, 0, 0]]
    }, 
    {
      "op": "null", 
      "name": "layer2_1_conv0_weight", 
      "attrs": {
        "__dtype__": "0", 
        "__lr_mult__": "1.0", 
        "__shape__": "(128, 512, 1, 1, 1)", 
        "__storage_type__": "0", 
        "__wd_mult__": "1.0"
      }, 
      "inputs": []
    }, 
    {
      "op": "Convolution", 
      "name": "layer2_1_conv0_fwd", 
      "attrs": {
        "dilate": "(1, 1, 1)", 
        "kernel": "(1, 1, 1)", 
        "layout": "NCDHW", 
        "no_bias": "True", 
        "num_filter": "128", 
        "num_group": "1", 
        "pad": "(0, 0, 0)", 
        "stride": "(1, 1, 1)"
      }, 
      "inputs": [[129, 0, 0], [130, 0, 0]]
    }, 
    {
      "op": "null", 
      "name": "layer2_1_batchnorm0_gamma", 
      "attrs": {
        "__dtype__": "0", 
        "__init__": "ones", 
        "__lr_mult__": "1.0", 
        "__shape__": "(128,)", 
        "__storage_type__": "0", 
        "__wd_mult__": "1.0"
      }, 
      "inputs": []
    }, 
    {
      "op": "null", 
      "name": "layer2_1_batchnorm0_beta", 
      "attrs": {
        "__dtype__": "0", 
        "__init__": "zeros", 
        "__lr_mult__": "1.0", 
        "__shape__": "(128,)", 
        "__storage_type__": "0", 
        "__wd_mult__": "1.0"
      }, 
      "inputs": []
    }, 
    {
      "op": "null", 
      "name": "layer2_1_batchnorm0_running_mean", 
      "attrs": {
        "__dtype__": "0", 
        "__init__": "zeros", 
        "__lr_mult__": "1.0", 
        "__shape__": "(128,)", 
        "__storage_type__": "0", 
        "__wd_mult__": "1.0"
      }, 
      "inputs": []
    }, 
    {
      "op": "null", 
      "name": "layer2_1_batchnorm0_running_var", 
      "attrs": {
        "__dtype__": "0", 
        "__init__": "ones", 
        "__lr_mult__": "1.0", 
        "__shape__": "(128,)", 
        "__storage_type__": "0", 
        "__wd_mult__": "1.0"
      }, 
      "inputs": []
    }, 
    {
      "op": "BatchNorm", 
      "name": "layer2_1_batchnorm0_fwd", 
      "attrs": {
        "axis": "1", 
        "eps": "1e-05", 
        "fix_gamma": "False", 
        "momentum": "0.9", 
        "use_global_stats": "False"
      }, 
      "inputs": [[131, 0, 0], [132, 0, 0], [133, 0, 0], [134, 0, 1], [135, 0, 1]]
    }, 
    {
      "op": "Activation", 
      "name": "layer2_1_relu0_fwd", 
      "attrs": {"act_type": "relu"}, 
      "inputs": [[136, 0, 0]]
    }, 
    {
      "op": "null", 
      "name": "layer2_1_conv1_weight", 
      "attrs": {
        "__dtype__": "0", 
        "__lr_mult__": "1.0", 
        "__shape__": "(128, 128, 1, 3, 3)", 
        "__storage_type__": "0", 
        "__wd_mult__": "1.0"
      }, 
      "inputs": []
    }, 
    {
      "op": "Convolution", 
      "name": "layer2_1_conv1_fwd", 
      "attrs": {
        "dilate": "(1, 1, 1)", 
        "kernel": "(1, 3, 3)", 
        "layout": "NCDHW", 
        "no_bias": "True", 
        "num_filter": "128", 
        "num_group": "1", 
        "pad": "(0, 1, 1)", 
        "stride": "(1, 1, 1)"
      }, 
      "inputs": [[137, 0, 0], [138, 0, 0]]
    }, 
    {
      "op": "null", 
      "name": "layer2_1_batchnorm1_gamma", 
      "attrs": {
        "__dtype__": "0", 
        "__init__": "ones", 
        "__lr_mult__": "1.0", 
        "__shape__": "(128,)", 
        "__storage_type__": "0", 
        "__wd_mult__": "1.0"
      }, 
      "inputs": []
    }, 
    {
      "op": "null", 
      "name": "layer2_1_batchnorm1_beta", 
      "attrs": {
        "__dtype__": "0", 
        "__init__": "zeros", 
        "__lr_mult__": "1.0", 
        "__shape__": "(128,)", 
        "__storage_type__": "0", 
        "__wd_mult__": "1.0"
      }, 
      "inputs": []
    }, 
    {
      "op": "null", 
      "name": "layer2_1_batchnorm1_running_mean", 
      "attrs": {
        "__dtype__": "0", 
        "__init__": "zeros", 
        "__lr_mult__": "1.0", 
        "__shape__": "(128,)", 
        "__storage_type__": "0", 
        "__wd_mult__": "1.0"
      }, 
      "inputs": []
    }, 
    {
      "op": "null", 
      "name": "layer2_1_batchnorm1_running_var", 
      "attrs": {
        "__dtype__": "0", 
        "__init__": "ones", 
        "__lr_mult__": "1.0", 
        "__shape__": "(128,)", 
        "__storage_type__": "0", 
        "__wd_mult__": "1.0"
      }, 
      "inputs": []
    }, 
    {
      "op": "BatchNorm", 
      "name": "layer2_1_batchnorm1_fwd", 
      "attrs": {
        "axis": "1", 
        "eps": "1e-05", 
        "fix_gamma": "False", 
        "momentum": "0.9", 
        "use_global_stats": "False"
      }, 
      "inputs": [[139, 0, 0], [140, 0, 0], [141, 0, 0], [142, 0, 1], [143, 0, 1]]
    }, 
    {
      "op": "Activation", 
      "name": "layer2_1_relu0_fwd", 
      "attrs": {"act_type": "relu"}, 
      "inputs": [[144, 0, 0]]
    }, 
    {
      "op": "null", 
      "name": "layer2_1_conv2_weight", 
      "attrs": {
        "__dtype__": "0", 
        "__lr_mult__": "1.0", 
        "__shape__": "(512, 128, 1, 1, 1)", 
        "__storage_type__": "0", 
        "__wd_mult__": "1.0"
      }, 
      "inputs": []
    }, 
    {
      "op": "Convolution", 
      "name": "layer2_1_conv2_fwd", 
      "attrs": {
        "dilate": "(1, 1, 1)", 
        "kernel": "(1, 1, 1)", 
        "layout": "NCDHW", 
        "no_bias": "True", 
        "num_filter": "512", 
        "num_group": "1", 
        "pad": "(0, 0, 0)", 
        "stride": "(1, 1, 1)"
      }, 
      "inputs": [[145, 0, 0], [146, 0, 0]]
    }, 
    {
      "op": "null", 
      "name": "layer2_1_batchnorm2_gamma", 
      "attrs": {
        "__dtype__": "0", 
        "__init__": "ones", 
        "__lr_mult__": "1.0", 
        "__shape__": "(512,)", 
        "__storage_type__": "0", 
        "__wd_mult__": "1.0"
      }, 
      "inputs": []
    }, 
    {
      "op": "null", 
      "name": "layer2_1_batchnorm2_beta", 
      "attrs": {
        "__dtype__": "0", 
        "__init__": "zeros", 
        "__lr_mult__": "1.0", 
        "__shape__": "(512,)", 
        "__storage_type__": "0", 
        "__wd_mult__": "1.0"
      }, 
      "inputs": []
    }, 
    {
      "op": "null", 
      "name": "layer2_1_batchnorm2_running_mean", 
      "attrs": {
        "__dtype__": "0", 
        "__init__": "zeros", 
        "__lr_mult__": "1.0", 
        "__shape__": "(512,)", 
        "__storage_type__": "0", 
        "__wd_mult__": "1.0"
      }, 
      "inputs": []
    }, 
    {
      "op": "null", 
      "name": "layer2_1_batchnorm2_running_var", 
      "attrs": {
        "__dtype__": "0", 
        "__init__": "ones", 
        "__lr_mult__": "1.0", 
        "__shape__": "(512,)", 
        "__storage_type__": "0", 
        "__wd_mult__": "1.0"
      }, 
      "inputs": []
    }, 
    {
      "op": "BatchNorm", 
      "name": "layer2_1_batchnorm2_fwd", 
      "attrs": {
        "axis": "1", 
        "eps": "1e-05", 
        "fix_gamma": "False", 
        "momentum": "0.9", 
        "use_global_stats": "False"
      }, 
      "inputs": [[147, 0, 0], [148, 0, 0], [149, 0, 0], [150, 0, 1], [151, 0, 1]]
    }, 
    {
      "op": "elemwise_add", 
      "name": "layer2_bottleneck1__plus0", 
      "inputs": [[152, 0, 0], [129, 0, 0]]
    }, 
    {
      "op": "Activation", 
      "name": "layer2_bottleneck1_activation0", 
      "attrs": {"act_type": "relu"}, 
      "inputs": [[153, 0, 0]]
    }, 
    {
      "op": "null", 
      "name": "layer2_2_conv0_weight", 
      "attrs": {
        "__dtype__": "0", 
        "__lr_mult__": "1.0", 
        "__shape__": "(128, 512, 3, 1, 1)", 
        "__storage_type__": "0", 
        "__wd_mult__": "1.0"
      }, 
      "inputs": []
    }, 
    {
      "op": "Convolution", 
      "name": "layer2_2_conv0_fwd", 
      "attrs": {
        "dilate": "(1, 1, 1)", 
        "kernel": "(3, 1, 1)", 
        "layout": "NCDHW", 
        "no_bias": "True", 
        "num_filter": "128", 
        "num_group": "1", 
        "pad": "(1, 0, 0)", 
        "stride": "(1, 1, 1)"
      }, 
      "inputs": [[154, 0, 0], [155, 0, 0]]
    }, 
    {
      "op": "null", 
      "name": "layer2_2_batchnorm0_gamma", 
      "attrs": {
        "__dtype__": "0", 
        "__init__": "ones", 
        "__lr_mult__": "1.0", 
        "__shape__": "(128,)", 
        "__storage_type__": "0", 
        "__wd_mult__": "1.0"
      }, 
      "inputs": []
    }, 
    {
      "op": "null", 
      "name": "layer2_2_batchnorm0_beta", 
      "attrs": {
        "__dtype__": "0", 
        "__init__": "zeros", 
        "__lr_mult__": "1.0", 
        "__shape__": "(128,)", 
        "__storage_type__": "0", 
        "__wd_mult__": "1.0"
      }, 
      "inputs": []
    }, 
    {
      "op": "null", 
      "name": "layer2_2_batchnorm0_running_mean", 
      "attrs": {
        "__dtype__": "0", 
        "__init__": "zeros", 
        "__lr_mult__": "1.0", 
        "__shape__": "(128,)", 
        "__storage_type__": "0", 
        "__wd_mult__": "1.0"
      }, 
      "inputs": []
    }, 
    {
      "op": "null", 
      "name": "layer2_2_batchnorm0_running_var", 
      "attrs": {
        "__dtype__": "0", 
        "__init__": "ones", 
        "__lr_mult__": "1.0", 
        "__shape__": "(128,)", 
        "__storage_type__": "0", 
        "__wd_mult__": "1.0"
      }, 
      "inputs": []
    }, 
    {
      "op": "BatchNorm", 
      "name": "layer2_2_batchnorm0_fwd", 
      "attrs": {
        "axis": "1", 
        "eps": "1e-05", 
        "fix_gamma": "False", 
        "momentum": "0.9", 
        "use_global_stats": "False"
      }, 
      "inputs": [[156, 0, 0], [157, 0, 0], [158, 0, 0], [159, 0, 1], [160, 0, 1]]
    }, 
    {
      "op": "Activation", 
      "name": "layer2_2_relu0_fwd", 
      "attrs": {"act_type": "relu"}, 
      "inputs": [[161, 0, 0]]
    }, 
    {
      "op": "null", 
      "name": "layer2_2_conv1_weight", 
      "attrs": {
        "__dtype__": "0", 
        "__lr_mult__": "1.0", 
        "__shape__": "(128, 128, 1, 3, 3)", 
        "__storage_type__": "0", 
        "__wd_mult__": "1.0"
      }, 
      "inputs": []
    }, 
    {
      "op": "Convolution", 
      "name": "layer2_2_conv1_fwd", 
      "attrs": {
        "dilate": "(1, 1, 1)", 
        "kernel": "(1, 3, 3)", 
        "layout": "NCDHW", 
        "no_bias": "True", 
        "num_filter": "128", 
        "num_group": "1", 
        "pad": "(0, 1, 1)", 
        "stride": "(1, 1, 1)"
      }, 
      "inputs": [[162, 0, 0], [163, 0, 0]]
    }, 
    {
      "op": "null", 
      "name": "layer2_2_batchnorm1_gamma", 
      "attrs": {
        "__dtype__": "0", 
        "__init__": "ones", 
        "__lr_mult__": "1.0", 
        "__shape__": "(128,)", 
        "__storage_type__": "0", 
        "__wd_mult__": "1.0"
      }, 
      "inputs": []
    }, 
    {
      "op": "null", 
      "name": "layer2_2_batchnorm1_beta", 
      "attrs": {
        "__dtype__": "0", 
        "__init__": "zeros", 
        "__lr_mult__": "1.0", 
        "__shape__": "(128,)", 
        "__storage_type__": "0", 
        "__wd_mult__": "1.0"
      }, 
      "inputs": []
    }, 
    {
      "op": "null", 
      "name": "layer2_2_batchnorm1_running_mean", 
      "attrs": {
        "__dtype__": "0", 
        "__init__": "zeros", 
        "__lr_mult__": "1.0", 
        "__shape__": "(128,)", 
        "__storage_type__": "0", 
        "__wd_mult__": "1.0"
      }, 
      "inputs": []
    }, 
    {
      "op": "null", 
      "name": "layer2_2_batchnorm1_running_var", 
      "attrs": {
        "__dtype__": "0", 
        "__init__": "ones", 
        "__lr_mult__": "1.0", 
        "__shape__": "(128,)", 
        "__storage_type__": "0", 
        "__wd_mult__": "1.0"
      }, 
      "inputs": []
    }, 
    {
      "op": "BatchNorm", 
      "name": "layer2_2_batchnorm1_fwd", 
      "attrs": {
        "axis": "1", 
        "eps": "1e-05", 
        "fix_gamma": "False", 
        "momentum": "0.9", 
        "use_global_stats": "False"
      }, 
      "inputs": [[164, 0, 0], [165, 0, 0], [166, 0, 0], [167, 0, 1], [168, 0, 1]]
    }, 
    {
      "op": "Activation", 
      "name": "layer2_2_relu0_fwd", 
      "attrs": {"act_type": "relu"}, 
      "inputs": [[169, 0, 0]]
    }, 
    {
      "op": "null", 
      "name": "layer2_2_conv2_weight", 
      "attrs": {
        "__dtype__": "0", 
        "__lr_mult__": "1.0", 
        "__shape__": "(512, 128, 1, 1, 1)", 
        "__storage_type__": "0", 
        "__wd_mult__": "1.0"
      }, 
      "inputs": []
    }, 
    {
      "op": "Convolution", 
      "name": "layer2_2_conv2_fwd", 
      "attrs": {
        "dilate": "(1, 1, 1)", 
        "kernel": "(1, 1, 1)", 
        "layout": "NCDHW", 
        "no_bias": "True", 
        "num_filter": "512", 
        "num_group": "1", 
        "pad": "(0, 0, 0)", 
        "stride": "(1, 1, 1)"
      }, 
      "inputs": [[170, 0, 0], [171, 0, 0]]
    }, 
    {
      "op": "null", 
      "name": "layer2_2_batchnorm2_gamma", 
      "attrs": {
        "__dtype__": "0", 
        "__init__": "ones", 
        "__lr_mult__": "1.0", 
        "__shape__": "(512,)", 
        "__storage_type__": "0", 
        "__wd_mult__": "1.0"
      }, 
      "inputs": []
    }, 
    {
      "op": "null", 
      "name": "layer2_2_batchnorm2_beta", 
      "attrs": {
        "__dtype__": "0", 
        "__init__": "zeros", 
        "__lr_mult__": "1.0", 
        "__shape__": "(512,)", 
        "__storage_type__": "0", 
        "__wd_mult__": "1.0"
      }, 
      "inputs": []
    }, 
    {
      "op": "null", 
      "name": "layer2_2_batchnorm2_running_mean", 
      "attrs": {
        "__dtype__": "0", 
        "__init__": "zeros", 
        "__lr_mult__": "1.0", 
        "__shape__": "(512,)", 
        "__storage_type__": "0", 
        "__wd_mult__": "1.0"
      }, 
      "inputs": []
    }, 
    {
      "op": "null", 
      "name": "layer2_2_batchnorm2_running_var", 
      "attrs": {
        "__dtype__": "0", 
        "__init__": "ones", 
        "__lr_mult__": "1.0", 
        "__shape__": "(512,)", 
        "__storage_type__": "0", 
        "__wd_mult__": "1.0"
      }, 
      "inputs": []
    }, 
    {
      "op": "BatchNorm", 
      "name": "layer2_2_batchnorm2_fwd", 
      "attrs": {
        "axis": "1", 
        "eps": "1e-05", 
        "fix_gamma": "False", 
        "momentum": "0.9", 
        "use_global_stats": "False"
      }, 
      "inputs": [[172, 0, 0], [173, 0, 0], [174, 0, 0], [175, 0, 1], [176, 0, 1]]
    }, 
    {
      "op": "elemwise_add", 
      "name": "layer2_bottleneck2__plus0", 
      "inputs": [[177, 0, 0], [154, 0, 0]]
    }, 
    {
      "op": "Activation", 
      "name": "layer2_bottleneck2_activation0", 
      "attrs": {"act_type": "relu"}, 
      "inputs": [[178, 0, 0]]
    }, 
    {
      "op": "null", 
      "name": "layer2_3_conv0_weight", 
      "attrs": {
        "__dtype__": "0", 
        "__lr_mult__": "1.0", 
        "__shape__": "(128, 512, 1, 1, 1)", 
        "__storage_type__": "0", 
        "__wd_mult__": "1.0"
      }, 
      "inputs": []
    }, 
    {
      "op": "Convolution", 
      "name": "layer2_3_conv0_fwd", 
      "attrs": {
        "dilate": "(1, 1, 1)", 
        "kernel": "(1, 1, 1)", 
        "layout": "NCDHW", 
        "no_bias": "True", 
        "num_filter": "128", 
        "num_group": "1", 
        "pad": "(0, 0, 0)", 
        "stride": "(1, 1, 1)"
      }, 
      "inputs": [[179, 0, 0], [180, 0, 0]]
    }, 
    {
      "op": "null", 
      "name": "layer2_3_batchnorm0_gamma", 
      "attrs": {
        "__dtype__": "0", 
        "__init__": "ones", 
        "__lr_mult__": "1.0", 
        "__shape__": "(128,)", 
        "__storage_type__": "0", 
        "__wd_mult__": "1.0"
      }, 
      "inputs": []
    }, 
    {
      "op": "null", 
      "name": "layer2_3_batchnorm0_beta", 
      "attrs": {
        "__dtype__": "0", 
        "__init__": "zeros", 
        "__lr_mult__": "1.0", 
        "__shape__": "(128,)", 
        "__storage_type__": "0", 
        "__wd_mult__": "1.0"
      }, 
      "inputs": []
    }, 
    {
      "op": "null", 
      "name": "layer2_3_batchnorm0_running_mean", 
      "attrs": {
        "__dtype__": "0", 
        "__init__": "zeros", 
        "__lr_mult__": "1.0", 
        "__shape__": "(128,)", 
        "__storage_type__": "0", 
        "__wd_mult__": "1.0"
      }, 
      "inputs": []
    }, 
    {
      "op": "null", 
      "name": "layer2_3_batchnorm0_running_var", 
      "attrs": {
        "__dtype__": "0", 
        "__init__": "ones", 
        "__lr_mult__": "1.0", 
        "__shape__": "(128,)", 
        "__storage_type__": "0", 
        "__wd_mult__": "1.0"
      }, 
      "inputs": []
    }, 
    {
      "op": "BatchNorm", 
      "name": "layer2_3_batchnorm0_fwd", 
      "attrs": {
        "axis": "1", 
        "eps": "1e-05", 
        "fix_gamma": "False", 
        "momentum": "0.9", 
        "use_global_stats": "False"
      }, 
      "inputs": [[181, 0, 0], [182, 0, 0], [183, 0, 0], [184, 0, 1], [185, 0, 1]]
    }, 
    {
      "op": "Activation", 
      "name": "layer2_3_relu0_fwd", 
      "attrs": {"act_type": "relu"}, 
      "inputs": [[186, 0, 0]]
    }, 
    {
      "op": "null", 
      "name": "layer2_3_conv1_weight", 
      "attrs": {
        "__dtype__": "0", 
        "__lr_mult__": "1.0", 
        "__shape__": "(128, 128, 1, 3, 3)", 
        "__storage_type__": "0", 
        "__wd_mult__": "1.0"
      }, 
      "inputs": []
    }, 
    {
      "op": "Convolution", 
      "name": "layer2_3_conv1_fwd", 
      "attrs": {
        "dilate": "(1, 1, 1)", 
        "kernel": "(1, 3, 3)", 
        "layout": "NCDHW", 
        "no_bias": "True", 
        "num_filter": "128", 
        "num_group": "1", 
        "pad": "(0, 1, 1)", 
        "stride": "(1, 1, 1)"
      }, 
      "inputs": [[187, 0, 0], [188, 0, 0]]
    }, 
    {
      "op": "null", 
      "name": "layer2_3_batchnorm1_gamma", 
      "attrs": {
        "__dtype__": "0", 
        "__init__": "ones", 
        "__lr_mult__": "1.0", 
        "__shape__": "(128,)", 
        "__storage_type__": "0", 
        "__wd_mult__": "1.0"
      }, 
      "inputs": []
    }, 
    {
      "op": "null", 
      "name": "layer2_3_batchnorm1_beta", 
      "attrs": {
        "__dtype__": "0", 
        "__init__": "zeros", 
        "__lr_mult__": "1.0", 
        "__shape__": "(128,)", 
        "__storage_type__": "0", 
        "__wd_mult__": "1.0"
      }, 
      "inputs": []
    }, 
    {
      "op": "null", 
      "name": "layer2_3_batchnorm1_running_mean", 
      "attrs": {
        "__dtype__": "0", 
        "__init__": "zeros", 
        "__lr_mult__": "1.0", 
        "__shape__": "(128,)", 
        "__storage_type__": "0", 
        "__wd_mult__": "1.0"
      }, 
      "inputs": []
    }, 
    {
      "op": "null", 
      "name": "layer2_3_batchnorm1_running_var", 
      "attrs": {
        "__dtype__": "0", 
        "__init__": "ones", 
        "__lr_mult__": "1.0", 
        "__shape__": "(128,)", 
        "__storage_type__": "0", 
        "__wd_mult__": "1.0"
      }, 
      "inputs": []
    }, 
    {
      "op": "BatchNorm", 
      "name": "layer2_3_batchnorm1_fwd", 
      "attrs": {
        "axis": "1", 
        "eps": "1e-05", 
        "fix_gamma": "False", 
        "momentum": "0.9", 
        "use_global_stats": "False"
      }, 
      "inputs": [[189, 0, 0], [190, 0, 0], [191, 0, 0], [192, 0, 1], [193, 0, 1]]
    }, 
    {
      "op": "Activation", 
      "name": "layer2_3_relu0_fwd", 
      "attrs": {"act_type": "relu"}, 
      "inputs": [[194, 0, 0]]
    }, 
    {
      "op": "null", 
      "name": "layer2_3_conv2_weight", 
      "attrs": {
        "__dtype__": "0", 
        "__lr_mult__": "1.0", 
        "__shape__": "(512, 128, 1, 1, 1)", 
        "__storage_type__": "0", 
        "__wd_mult__": "1.0"
      }, 
      "inputs": []
    }, 
    {
      "op": "Convolution", 
      "name": "layer2_3_conv2_fwd", 
      "attrs": {
        "dilate": "(1, 1, 1)", 
        "kernel": "(1, 1, 1)", 
        "layout": "NCDHW", 
        "no_bias": "True", 
        "num_filter": "512", 
        "num_group": "1", 
        "pad": "(0, 0, 0)", 
        "stride": "(1, 1, 1)"
      }, 
      "inputs": [[195, 0, 0], [196, 0, 0]]
    }, 
    {
      "op": "null", 
      "name": "layer2_3_batchnorm2_gamma", 
      "attrs": {
        "__dtype__": "0", 
        "__init__": "ones", 
        "__lr_mult__": "1.0", 
        "__shape__": "(512,)", 
        "__storage_type__": "0", 
        "__wd_mult__": "1.0"
      }, 
      "inputs": []
    }, 
    {
      "op": "null", 
      "name": "layer2_3_batchnorm2_beta", 
      "attrs": {
        "__dtype__": "0", 
        "__init__": "zeros", 
        "__lr_mult__": "1.0", 
        "__shape__": "(512,)", 
        "__storage_type__": "0", 
        "__wd_mult__": "1.0"
      }, 
      "inputs": []
    }, 
    {
      "op": "null", 
      "name": "layer2_3_batchnorm2_running_mean", 
      "attrs": {
        "__dtype__": "0", 
        "__init__": "zeros", 
        "__lr_mult__": "1.0", 
        "__shape__": "(512,)", 
        "__storage_type__": "0", 
        "__wd_mult__": "1.0"
      }, 
      "inputs": []
    }, 
    {
      "op": "null", 
      "name": "layer2_3_batchnorm2_running_var", 
      "attrs": {
        "__dtype__": "0", 
        "__init__": "ones", 
        "__lr_mult__": "1.0", 
        "__shape__": "(512,)", 
        "__storage_type__": "0", 
        "__wd_mult__": "1.0"
      }, 
      "inputs": []
    }, 
    {
      "op": "BatchNorm", 
      "name": "layer2_3_batchnorm2_fwd", 
      "attrs": {
        "axis": "1", 
        "eps": "1e-05", 
        "fix_gamma": "False", 
        "momentum": "0.9", 
        "use_global_stats": "False"
      }, 
      "inputs": [[197, 0, 0], [198, 0, 0], [199, 0, 0], [200, 0, 1], [201, 0, 1]]
    }, 
    {
      "op": "elemwise_add", 
      "name": "layer2_bottleneck3__plus0", 
      "inputs": [[202, 0, 0], [179, 0, 0]]
    }, 
    {
      "op": "Activation", 
      "name": "layer2_bottleneck3_activation0", 
      "attrs": {"act_type": "relu"}, 
      "inputs": [[203, 0, 0]]
    }, 
    {
      "op": "null", 
      "name": "layer3_0_conv0_weight", 
      "attrs": {
        "__dtype__": "0", 
        "__lr_mult__": "1.0", 
        "__shape__": "(256, 512, 3, 1, 1)", 
        "__storage_type__": "0", 
        "__wd_mult__": "1.0"
      }, 
      "inputs": []
    }, 
    {
      "op": "Convolution", 
      "name": "layer3_0_conv0_fwd", 
      "attrs": {
        "dilate": "(1, 1, 1)", 
        "kernel": "(3, 1, 1)", 
        "layout": "NCDHW", 
        "no_bias": "True", 
        "num_filter": "256", 
        "num_group": "1", 
        "pad": "(1, 0, 0)", 
        "stride": "(1, 1, 1)"
      }, 
      "inputs": [[204, 0, 0], [205, 0, 0]]
    }, 
    {
      "op": "null", 
      "name": "layer3_0_batchnorm0_gamma", 
      "attrs": {
        "__dtype__": "0", 
        "__init__": "ones", 
        "__lr_mult__": "1.0", 
        "__shape__": "(256,)", 
        "__storage_type__": "0", 
        "__wd_mult__": "1.0"
      }, 
      "inputs": []
    }, 
    {
      "op": "null", 
      "name": "layer3_0_batchnorm0_beta", 
      "attrs": {
        "__dtype__": "0", 
        "__init__": "zeros", 
        "__lr_mult__": "1.0", 
        "__shape__": "(256,)", 
        "__storage_type__": "0", 
        "__wd_mult__": "1.0"
      }, 
      "inputs": []
    }, 
    {
      "op": "null", 
      "name": "layer3_0_batchnorm0_running_mean", 
      "attrs": {
        "__dtype__": "0", 
        "__init__": "zeros", 
        "__lr_mult__": "1.0", 
        "__shape__": "(256,)", 
        "__storage_type__": "0", 
        "__wd_mult__": "1.0"
      }, 
      "inputs": []
    }, 
    {
      "op": "null", 
      "name": "layer3_0_batchnorm0_running_var", 
      "attrs": {
        "__dtype__": "0", 
        "__init__": "ones", 
        "__lr_mult__": "1.0", 
        "__shape__": "(256,)", 
        "__storage_type__": "0", 
        "__wd_mult__": "1.0"
      }, 
      "inputs": []
    }, 
    {
      "op": "BatchNorm", 
      "name": "layer3_0_batchnorm0_fwd", 
      "attrs": {
        "axis": "1", 
        "eps": "1e-05", 
        "fix_gamma": "False", 
        "momentum": "0.9", 
        "use_global_stats": "False"
      }, 
      "inputs": [[206, 0, 0], [207, 0, 0], [208, 0, 0], [209, 0, 1], [210, 0, 1]]
    }, 
    {
      "op": "Activation", 
      "name": "layer3_0_relu0_fwd", 
      "attrs": {"act_type": "relu"}, 
      "inputs": [[211, 0, 0]]
    }, 
    {
      "op": "null", 
      "name": "layer3_0_conv1_weight", 
      "attrs": {
        "__dtype__": "0", 
        "__lr_mult__": "1.0", 
        "__shape__": "(256, 256, 1, 3, 3)", 
        "__storage_type__": "0", 
        "__wd_mult__": "1.0"
      }, 
      "inputs": []
    }, 
    {
      "op": "Convolution", 
      "name": "layer3_0_conv1_fwd", 
      "attrs": {
        "dilate": "(1, 1, 1)", 
        "kernel": "(1, 3, 3)", 
        "layout": "NCDHW", 
        "no_bias": "True", 
        "num_filter": "256", 
        "num_group": "1", 
        "pad": "(0, 1, 1)", 
        "stride": "(1, 2, 2)"
      }, 
      "inputs": [[212, 0, 0], [213, 0, 0]]
    }, 
    {
      "op": "null", 
      "name": "layer3_0_batchnorm1_gamma", 
      "attrs": {
        "__dtype__": "0", 
        "__init__": "ones", 
        "__lr_mult__": "1.0", 
        "__shape__": "(256,)", 
        "__storage_type__": "0", 
        "__wd_mult__": "1.0"
      }, 
      "inputs": []
    }, 
    {
      "op": "null", 
      "name": "layer3_0_batchnorm1_beta", 
      "attrs": {
        "__dtype__": "0", 
        "__init__": "zeros", 
        "__lr_mult__": "1.0", 
        "__shape__": "(256,)", 
        "__storage_type__": "0", 
        "__wd_mult__": "1.0"
      }, 
      "inputs": []
    }, 
    {
      "op": "null", 
      "name": "layer3_0_batchnorm1_running_mean", 
      "attrs": {
        "__dtype__": "0", 
        "__init__": "zeros", 
        "__lr_mult__": "1.0", 
        "__shape__": "(256,)", 
        "__storage_type__": "0", 
        "__wd_mult__": "1.0"
      }, 
      "inputs": []
    }, 
    {
      "op": "null", 
      "name": "layer3_0_batchnorm1_running_var", 
      "attrs": {
        "__dtype__": "0", 
        "__init__": "ones", 
        "__lr_mult__": "1.0", 
        "__shape__": "(256,)", 
        "__storage_type__": "0", 
        "__wd_mult__": "1.0"
      }, 
      "inputs": []
    }, 
    {
      "op": "BatchNorm", 
      "name": "layer3_0_batchnorm1_fwd", 
      "attrs": {
        "axis": "1", 
        "eps": "1e-05", 
        "fix_gamma": "False", 
        "momentum": "0.9", 
        "use_global_stats": "False"
      }, 
      "inputs": [[214, 0, 0], [215, 0, 0], [216, 0, 0], [217, 0, 1], [218, 0, 1]]
    }, 
    {
      "op": "Activation", 
      "name": "layer3_0_relu0_fwd", 
      "attrs": {"act_type": "relu"}, 
      "inputs": [[219, 0, 0]]
    }, 
    {
      "op": "null", 
      "name": "layer3_0_conv2_weight", 
      "attrs": {
        "__dtype__": "0", 
        "__lr_mult__": "1.0", 
        "__shape__": "(1024, 256, 1, 1, 1)", 
        "__storage_type__": "0", 
        "__wd_mult__": "1.0"
      }, 
      "inputs": []
    }, 
    {
      "op": "Convolution", 
      "name": "layer3_0_conv2_fwd", 
      "attrs": {
        "dilate": "(1, 1, 1)", 
        "kernel": "(1, 1, 1)", 
        "layout": "NCDHW", 
        "no_bias": "True", 
        "num_filter": "1024", 
        "num_group": "1", 
        "pad": "(0, 0, 0)", 
        "stride": "(1, 1, 1)"
      }, 
      "inputs": [[220, 0, 0], [221, 0, 0]]
    }, 
    {
      "op": "null", 
      "name": "layer3_0_batchnorm2_gamma", 
      "attrs": {
        "__dtype__": "0", 
        "__init__": "ones", 
        "__lr_mult__": "1.0", 
        "__shape__": "(1024,)", 
        "__storage_type__": "0", 
        "__wd_mult__": "1.0"
      }, 
      "inputs": []
    }, 
    {
      "op": "null", 
      "name": "layer3_0_batchnorm2_beta", 
      "attrs": {
        "__dtype__": "0", 
        "__init__": "zeros", 
        "__lr_mult__": "1.0", 
        "__shape__": "(1024,)", 
        "__storage_type__": "0", 
        "__wd_mult__": "1.0"
      }, 
      "inputs": []
    }, 
    {
      "op": "null", 
      "name": "layer3_0_batchnorm2_running_mean", 
      "attrs": {
        "__dtype__": "0", 
        "__init__": "zeros", 
        "__lr_mult__": "1.0", 
        "__shape__": "(1024,)", 
        "__storage_type__": "0", 
        "__wd_mult__": "1.0"
      }, 
      "inputs": []
    }, 
    {
      "op": "null", 
      "name": "layer3_0_batchnorm2_running_var", 
      "attrs": {
        "__dtype__": "0", 
        "__init__": "ones", 
        "__lr_mult__": "1.0", 
        "__shape__": "(1024,)", 
        "__storage_type__": "0", 
        "__wd_mult__": "1.0"
      }, 
      "inputs": []
    }, 
    {
      "op": "BatchNorm", 
      "name": "layer3_0_batchnorm2_fwd", 
      "attrs": {
        "axis": "1", 
        "eps": "1e-05", 
        "fix_gamma": "False", 
        "momentum": "0.9", 
        "use_global_stats": "False"
      }, 
      "inputs": [[222, 0, 0], [223, 0, 0], [224, 0, 0], [225, 0, 1], [226, 0, 1]]
    }, 
    {
      "op": "null", 
      "name": "layer3_downsample_conv0_weight", 
      "attrs": {
        "__dtype__": "0", 
        "__lr_mult__": "1.0", 
        "__shape__": "(1024, 512, 1, 1, 1)", 
        "__storage_type__": "0", 
        "__wd_mult__": "1.0"
      }, 
      "inputs": []
    }, 
    {
      "op": "Convolution", 
      "name": "layer3_downsample_conv0_fwd", 
      "attrs": {
        "dilate": "(1, 1, 1)", 
        "kernel": "(1, 1, 1)", 
        "layout": "NCDHW", 
        "no_bias": "True", 
        "num_filter": "1024", 
        "num_group": "1", 
        "pad": "(0, 0, 0)", 
        "stride": "(1, 2, 2)"
      }, 
      "inputs": [[204, 0, 0], [228, 0, 0]]
    }, 
    {
      "op": "null", 
      "name": "layer3_downsample_batchnorm0_gamma", 
      "attrs": {
        "__dtype__": "0", 
        "__init__": "ones", 
        "__lr_mult__": "1.0", 
        "__shape__": "(1024,)", 
        "__storage_type__": "0", 
        "__wd_mult__": "1.0"
      }, 
      "inputs": []
    }, 
    {
      "op": "null", 
      "name": "layer3_downsample_batchnorm0_beta", 
      "attrs": {
        "__dtype__": "0", 
        "__init__": "zeros", 
        "__lr_mult__": "1.0", 
        "__shape__": "(1024,)", 
        "__storage_type__": "0", 
        "__wd_mult__": "1.0"
      }, 
      "inputs": []
    }, 
    {
      "op": "null", 
      "name": "layer3_downsample_batchnorm0_running_mean", 
      "attrs": {
        "__dtype__": "0", 
        "__init__": "zeros", 
        "__lr_mult__": "1.0", 
        "__shape__": "(1024,)", 
        "__storage_type__": "0", 
        "__wd_mult__": "1.0"
      }, 
      "inputs": []
    }, 
    {
      "op": "null", 
      "name": "layer3_downsample_batchnorm0_running_var", 
      "attrs": {
        "__dtype__": "0", 
        "__init__": "ones", 
        "__lr_mult__": "1.0", 
        "__shape__": "(1024,)", 
        "__storage_type__": "0", 
        "__wd_mult__": "1.0"
      }, 
      "inputs": []
    }, 
    {
      "op": "BatchNorm", 
      "name": "layer3_downsample_batchnorm0_fwd", 
      "attrs": {
        "axis": "1", 
        "eps": "1e-05", 
        "fix_gamma": "False", 
        "momentum": "0.9", 
        "use_global_stats": "True"
      }, 
      "inputs": [[229, 0, 0], [230, 0, 0], [231, 0, 0], [232, 0, 1], [233, 0, 1]]
    }, 
    {
      "op": "elemwise_add", 
      "name": "layer3_bottleneck0__plus0", 
      "inputs": [[227, 0, 0], [234, 0, 0]]
    }, 
    {
      "op": "Activation", 
      "name": "layer3_bottleneck0_activation0", 
      "attrs": {"act_type": "relu"}, 
      "inputs": [[235, 0, 0]]
    }, 
    {
      "op": "null", 
      "name": "layer3_1_conv0_weight", 
      "attrs": {
        "__dtype__": "0", 
        "__lr_mult__": "1.0", 
        "__shape__": "(256, 1024, 1, 1, 1)", 
        "__storage_type__": "0", 
        "__wd_mult__": "1.0"
      }, 
      "inputs": []
    }, 
    {
      "op": "Convolution", 
      "name": "layer3_1_conv0_fwd", 
      "attrs": {
        "dilate": "(1, 1, 1)", 
        "kernel": "(1, 1, 1)", 
        "layout": "NCDHW", 
        "no_bias": "True", 
        "num_filter": "256", 
        "num_group": "1", 
        "pad": "(0, 0, 0)", 
        "stride": "(1, 1, 1)"
      }, 
      "inputs": [[236, 0, 0], [237, 0, 0]]
    }, 
    {
      "op": "null", 
      "name": "layer3_1_batchnorm0_gamma", 
      "attrs": {
        "__dtype__": "0", 
        "__init__": "ones", 
        "__lr_mult__": "1.0", 
        "__shape__": "(256,)", 
        "__storage_type__": "0", 
        "__wd_mult__": "1.0"
      }, 
      "inputs": []
    }, 
    {
      "op": "null", 
      "name": "layer3_1_batchnorm0_beta", 
      "attrs": {
        "__dtype__": "0", 
        "__init__": "zeros", 
        "__lr_mult__": "1.0", 
        "__shape__": "(256,)", 
        "__storage_type__": "0", 
        "__wd_mult__": "1.0"
      }, 
      "inputs": []
    }, 
    {
      "op": "null", 
      "name": "layer3_1_batchnorm0_running_mean", 
      "attrs": {
        "__dtype__": "0", 
        "__init__": "zeros", 
        "__lr_mult__": "1.0", 
        "__shape__": "(256,)", 
        "__storage_type__": "0", 
        "__wd_mult__": "1.0"
      }, 
      "inputs": []
    }, 
    {
      "op": "null", 
      "name": "layer3_1_batchnorm0_running_var", 
      "attrs": {
        "__dtype__": "0", 
        "__init__": "ones", 
        "__lr_mult__": "1.0", 
        "__shape__": "(256,)", 
        "__storage_type__": "0", 
        "__wd_mult__": "1.0"
      }, 
      "inputs": []
    }, 
    {
      "op": "BatchNorm", 
      "name": "layer3_1_batchnorm0_fwd", 
      "attrs": {
        "axis": "1", 
        "eps": "1e-05", 
        "fix_gamma": "False", 
        "momentum": "0.9", 
        "use_global_stats": "False"
      }, 
      "inputs": [[238, 0, 0], [239, 0, 0], [240, 0, 0], [241, 0, 1], [242, 0, 1]]
    }, 
    {
      "op": "Activation", 
      "name": "layer3_1_relu0_fwd", 
      "attrs": {"act_type": "relu"}, 
      "inputs": [[243, 0, 0]]
    }, 
    {
      "op": "null", 
      "name": "layer3_1_conv1_weight", 
      "attrs": {
        "__dtype__": "0", 
        "__lr_mult__": "1.0", 
        "__shape__": "(256, 256, 1, 3, 3)", 
        "__storage_type__": "0", 
        "__wd_mult__": "1.0"
      }, 
      "inputs": []
    }, 
    {
      "op": "Convolution", 
      "name": "layer3_1_conv1_fwd", 
      "attrs": {
        "dilate": "(1, 1, 1)", 
        "kernel": "(1, 3, 3)", 
        "layout": "NCDHW", 
        "no_bias": "True", 
        "num_filter": "256", 
        "num_group": "1", 
        "pad": "(0, 1, 1)", 
        "stride": "(1, 1, 1)"
      }, 
      "inputs": [[244, 0, 0], [245, 0, 0]]
    }, 
    {
      "op": "null", 
      "name": "layer3_1_batchnorm1_gamma", 
      "attrs": {
        "__dtype__": "0", 
        "__init__": "ones", 
        "__lr_mult__": "1.0", 
        "__shape__": "(256,)", 
        "__storage_type__": "0", 
        "__wd_mult__": "1.0"
      }, 
      "inputs": []
    }, 
    {
      "op": "null", 
      "name": "layer3_1_batchnorm1_beta", 
      "attrs": {
        "__dtype__": "0", 
        "__init__": "zeros", 
        "__lr_mult__": "1.0", 
        "__shape__": "(256,)", 
        "__storage_type__": "0", 
        "__wd_mult__": "1.0"
      }, 
      "inputs": []
    }, 
    {
      "op": "null", 
      "name": "layer3_1_batchnorm1_running_mean", 
      "attrs": {
        "__dtype__": "0", 
        "__init__": "zeros", 
        "__lr_mult__": "1.0", 
        "__shape__": "(256,)", 
        "__storage_type__": "0", 
        "__wd_mult__": "1.0"
      }, 
      "inputs": []
    }, 
    {
      "op": "null", 
      "name": "layer3_1_batchnorm1_running_var", 
      "attrs": {
        "__dtype__": "0", 
        "__init__": "ones", 
        "__lr_mult__": "1.0", 
        "__shape__": "(256,)", 
        "__storage_type__": "0", 
        "__wd_mult__": "1.0"
      }, 
      "inputs": []
    }, 
    {
      "op": "BatchNorm", 
      "name": "layer3_1_batchnorm1_fwd", 
      "attrs": {
        "axis": "1", 
        "eps": "1e-05", 
        "fix_gamma": "False", 
        "momentum": "0.9", 
        "use_global_stats": "False"
      }, 
      "inputs": [[246, 0, 0], [247, 0, 0], [248, 0, 0], [249, 0, 1], [250, 0, 1]]
    }, 
    {
      "op": "Activation", 
      "name": "layer3_1_relu0_fwd", 
      "attrs": {"act_type": "relu"}, 
      "inputs": [[251, 0, 0]]
    }, 
    {
      "op": "null", 
      "name": "layer3_1_conv2_weight", 
      "attrs": {
        "__dtype__": "0", 
        "__lr_mult__": "1.0", 
        "__shape__": "(1024, 256, 1, 1, 1)", 
        "__storage_type__": "0", 
        "__wd_mult__": "1.0"
      }, 
      "inputs": []
    }, 
    {
      "op": "Convolution", 
      "name": "layer3_1_conv2_fwd", 
      "attrs": {
        "dilate": "(1, 1, 1)", 
        "kernel": "(1, 1, 1)", 
        "layout": "NCDHW", 
        "no_bias": "True", 
        "num_filter": "1024", 
        "num_group": "1", 
        "pad": "(0, 0, 0)", 
        "stride": "(1, 1, 1)"
      }, 
      "inputs": [[252, 0, 0], [253, 0, 0]]
    }, 
    {
      "op": "null", 
      "name": "layer3_1_batchnorm2_gamma", 
      "attrs": {
        "__dtype__": "0", 
        "__init__": "ones", 
        "__lr_mult__": "1.0", 
        "__shape__": "(1024,)", 
        "__storage_type__": "0", 
        "__wd_mult__": "1.0"
      }, 
      "inputs": []
    }, 
    {
      "op": "null", 
      "name": "layer3_1_batchnorm2_beta", 
      "attrs": {
        "__dtype__": "0", 
        "__init__": "zeros", 
        "__lr_mult__": "1.0", 
        "__shape__": "(1024,)", 
        "__storage_type__": "0", 
        "__wd_mult__": "1.0"
      }, 
      "inputs": []
    }, 
    {
      "op": "null", 
      "name": "layer3_1_batchnorm2_running_mean", 
      "attrs": {
        "__dtype__": "0", 
        "__init__": "zeros", 
        "__lr_mult__": "1.0", 
        "__shape__": "(1024,)", 
        "__storage_type__": "0", 
        "__wd_mult__": "1.0"
      }, 
      "inputs": []
    }, 
    {
      "op": "null", 
      "name": "layer3_1_batchnorm2_running_var", 
      "attrs": {
        "__dtype__": "0", 
        "__init__": "ones", 
        "__lr_mult__": "1.0", 
        "__shape__": "(1024,)", 
        "__storage_type__": "0", 
        "__wd_mult__": "1.0"
      }, 
      "inputs": []
    }, 
    {
      "op": "BatchNorm", 
      "name": "layer3_1_batchnorm2_fwd", 
      "attrs": {
        "axis": "1", 
        "eps": "1e-05", 
        "fix_gamma": "False", 
        "momentum": "0.9", 
        "use_global_stats": "False"
      }, 
      "inputs": [[254, 0, 0], [255, 0, 0], [256, 0, 0], [257, 0, 1], [258, 0, 1]]
    }, 
    {
      "op": "elemwise_add", 
      "name": "layer3_bottleneck1__plus0", 
      "inputs": [[259, 0, 0], [236, 0, 0]]
    }, 
    {
      "op": "Activation", 
      "name": "layer3_bottleneck1_activation0", 
      "attrs": {"act_type": "relu"}, 
      "inputs": [[260, 0, 0]]
    }, 
    {
      "op": "null", 
      "name": "layer3_2_conv0_weight", 
      "attrs": {
        "__dtype__": "0", 
        "__lr_mult__": "1.0", 
        "__shape__": "(256, 1024, 3, 1, 1)", 
        "__storage_type__": "0", 
        "__wd_mult__": "1.0"
      }, 
      "inputs": []
    }, 
    {
      "op": "Convolution", 
      "name": "layer3_2_conv0_fwd", 
      "attrs": {
        "dilate": "(1, 1, 1)", 
        "kernel": "(3, 1, 1)", 
        "layout": "NCDHW", 
        "no_bias": "True", 
        "num_filter": "256", 
        "num_group": "1", 
        "pad": "(1, 0, 0)", 
        "stride": "(1, 1, 1)"
      }, 
      "inputs": [[261, 0, 0], [262, 0, 0]]
    }, 
    {
      "op": "null", 
      "name": "layer3_2_batchnorm0_gamma", 
      "attrs": {
        "__dtype__": "0", 
        "__init__": "ones", 
        "__lr_mult__": "1.0", 
        "__shape__": "(256,)", 
        "__storage_type__": "0", 
        "__wd_mult__": "1.0"
      }, 
      "inputs": []
    }, 
    {
      "op": "null", 
      "name": "layer3_2_batchnorm0_beta", 
      "attrs": {
        "__dtype__": "0", 
        "__init__": "zeros", 
        "__lr_mult__": "1.0", 
        "__shape__": "(256,)", 
        "__storage_type__": "0", 
        "__wd_mult__": "1.0"
      }, 
      "inputs": []
    }, 
    {
      "op": "null", 
      "name": "layer3_2_batchnorm0_running_mean", 
      "attrs": {
        "__dtype__": "0", 
        "__init__": "zeros", 
        "__lr_mult__": "1.0", 
        "__shape__": "(256,)", 
        "__storage_type__": "0", 
        "__wd_mult__": "1.0"
      }, 
      "inputs": []
    }, 
    {
      "op": "null", 
      "name": "layer3_2_batchnorm0_running_var", 
      "attrs": {
        "__dtype__": "0", 
        "__init__": "ones", 
        "__lr_mult__": "1.0", 
        "__shape__": "(256,)", 
        "__storage_type__": "0", 
        "__wd_mult__": "1.0"
      }, 
      "inputs": []
    }, 
    {
      "op": "BatchNorm", 
      "name": "layer3_2_batchnorm0_fwd", 
      "attrs": {
        "axis": "1", 
        "eps": "1e-05", 
        "fix_gamma": "False", 
        "momentum": "0.9", 
        "use_global_stats": "False"
      }, 
      "inputs": [[263, 0, 0], [264, 0, 0], [265, 0, 0], [266, 0, 1], [267, 0, 1]]
    }, 
    {
      "op": "Activation", 
      "name": "layer3_2_relu0_fwd", 
      "attrs": {"act_type": "relu"}, 
      "inputs": [[268, 0, 0]]
    }, 
    {
      "op": "null", 
      "name": "layer3_2_conv1_weight", 
      "attrs": {
        "__dtype__": "0", 
        "__lr_mult__": "1.0", 
        "__shape__": "(256, 256, 1, 3, 3)", 
        "__storage_type__": "0", 
        "__wd_mult__": "1.0"
      }, 
      "inputs": []
    }, 
    {
      "op": "Convolution", 
      "name": "layer3_2_conv1_fwd", 
      "attrs": {
        "dilate": "(1, 1, 1)", 
        "kernel": "(1, 3, 3)", 
        "layout": "NCDHW", 
        "no_bias": "True", 
        "num_filter": "256", 
        "num_group": "1", 
        "pad": "(0, 1, 1)", 
        "stride": "(1, 1, 1)"
      }, 
      "inputs": [[269, 0, 0], [270, 0, 0]]
    }, 
    {
      "op": "null", 
      "name": "layer3_2_batchnorm1_gamma", 
      "attrs": {
        "__dtype__": "0", 
        "__init__": "ones", 
        "__lr_mult__": "1.0", 
        "__shape__": "(256,)", 
        "__storage_type__": "0", 
        "__wd_mult__": "1.0"
      }, 
      "inputs": []
    }, 
    {
      "op": "null", 
      "name": "layer3_2_batchnorm1_beta", 
      "attrs": {
        "__dtype__": "0", 
        "__init__": "zeros", 
        "__lr_mult__": "1.0", 
        "__shape__": "(256,)", 
        "__storage_type__": "0", 
        "__wd_mult__": "1.0"
      }, 
      "inputs": []
    }, 
    {
      "op": "null", 
      "name": "layer3_2_batchnorm1_running_mean", 
      "attrs": {
        "__dtype__": "0", 
        "__init__": "zeros", 
        "__lr_mult__": "1.0", 
        "__shape__": "(256,)", 
        "__storage_type__": "0", 
        "__wd_mult__": "1.0"
      }, 
      "inputs": []
    }, 
    {
      "op": "null", 
      "name": "layer3_2_batchnorm1_running_var", 
      "attrs": {
        "__dtype__": "0", 
        "__init__": "ones", 
        "__lr_mult__": "1.0", 
        "__shape__": "(256,)", 
        "__storage_type__": "0", 
        "__wd_mult__": "1.0"
      }, 
      "inputs": []
    }, 
    {
      "op": "BatchNorm", 
      "name": "layer3_2_batchnorm1_fwd", 
      "attrs": {
        "axis": "1", 
        "eps": "1e-05", 
        "fix_gamma": "False", 
        "momentum": "0.9", 
        "use_global_stats": "False"
      }, 
      "inputs": [[271, 0, 0], [272, 0, 0], [273, 0, 0], [274, 0, 1], [275, 0, 1]]
    }, 
    {
      "op": "Activation", 
      "name": "layer3_2_relu0_fwd", 
      "attrs": {"act_type": "relu"}, 
      "inputs": [[276, 0, 0]]
    }, 
    {
      "op": "null", 
      "name": "layer3_2_conv2_weight", 
      "attrs": {
        "__dtype__": "0", 
        "__lr_mult__": "1.0", 
        "__shape__": "(1024, 256, 1, 1, 1)", 
        "__storage_type__": "0", 
        "__wd_mult__": "1.0"
      }, 
      "inputs": []
    }, 
    {
      "op": "Convolution", 
      "name": "layer3_2_conv2_fwd", 
      "attrs": {
        "dilate": "(1, 1, 1)", 
        "kernel": "(1, 1, 1)", 
        "layout": "NCDHW", 
        "no_bias": "True", 
        "num_filter": "1024", 
        "num_group": "1", 
        "pad": "(0, 0, 0)", 
        "stride": "(1, 1, 1)"
      }, 
      "inputs": [[277, 0, 0], [278, 0, 0]]
    }, 
    {
      "op": "null", 
      "name": "layer3_2_batchnorm2_gamma", 
      "attrs": {
        "__dtype__": "0", 
        "__init__": "ones", 
        "__lr_mult__": "1.0", 
        "__shape__": "(1024,)", 
        "__storage_type__": "0", 
        "__wd_mult__": "1.0"
      }, 
      "inputs": []
    }, 
    {
      "op": "null", 
      "name": "layer3_2_batchnorm2_beta", 
      "attrs": {
        "__dtype__": "0", 
        "__init__": "zeros", 
        "__lr_mult__": "1.0", 
        "__shape__": "(1024,)", 
        "__storage_type__": "0", 
        "__wd_mult__": "1.0"
      }, 
      "inputs": []
    }, 
    {
      "op": "null", 
      "name": "layer3_2_batchnorm2_running_mean", 
      "attrs": {
        "__dtype__": "0", 
        "__init__": "zeros", 
        "__lr_mult__": "1.0", 
        "__shape__": "(1024,)", 
        "__storage_type__": "0", 
        "__wd_mult__": "1.0"
      }, 
      "inputs": []
    }, 
    {
      "op": "null", 
      "name": "layer3_2_batchnorm2_running_var", 
      "attrs": {
        "__dtype__": "0", 
        "__init__": "ones", 
        "__lr_mult__": "1.0", 
        "__shape__": "(1024,)", 
        "__storage_type__": "0", 
        "__wd_mult__": "1.0"
      }, 
      "inputs": []
    }, 
    {
      "op": "BatchNorm", 
      "name": "layer3_2_batchnorm2_fwd", 
      "attrs": {
        "axis": "1", 
        "eps": "1e-05", 
        "fix_gamma": "False", 
        "momentum": "0.9", 
        "use_global_stats": "False"
      }, 
      "inputs": [[279, 0, 0], [280, 0, 0], [281, 0, 0], [282, 0, 1], [283, 0, 1]]
    }, 
    {
      "op": "elemwise_add", 
      "name": "layer3_bottleneck2__plus0", 
      "inputs": [[284, 0, 0], [261, 0, 0]]
    }, 
    {
      "op": "Activation", 
      "name": "layer3_bottleneck2_activation0", 
      "attrs": {"act_type": "relu"}, 
      "inputs": [[285, 0, 0]]
    }, 
    {
      "op": "null", 
      "name": "layer3_3_conv0_weight", 
      "attrs": {
        "__dtype__": "0", 
        "__lr_mult__": "1.0", 
        "__shape__": "(256, 1024, 1, 1, 1)", 
        "__storage_type__": "0", 
        "__wd_mult__": "1.0"
      }, 
      "inputs": []
    }, 
    {
      "op": "Convolution", 
      "name": "layer3_3_conv0_fwd", 
      "attrs": {
        "dilate": "(1, 1, 1)", 
        "kernel": "(1, 1, 1)", 
        "layout": "NCDHW", 
        "no_bias": "True", 
        "num_filter": "256", 
        "num_group": "1", 
        "pad": "(0, 0, 0)", 
        "stride": "(1, 1, 1)"
      }, 
      "inputs": [[286, 0, 0], [287, 0, 0]]
    }, 
    {
      "op": "null", 
      "name": "layer3_3_batchnorm0_gamma", 
      "attrs": {
        "__dtype__": "0", 
        "__init__": "ones", 
        "__lr_mult__": "1.0", 
        "__shape__": "(256,)", 
        "__storage_type__": "0", 
        "__wd_mult__": "1.0"
      }, 
      "inputs": []
    }, 
    {
      "op": "null", 
      "name": "layer3_3_batchnorm0_beta", 
      "attrs": {
        "__dtype__": "0", 
        "__init__": "zeros", 
        "__lr_mult__": "1.0", 
        "__shape__": "(256,)", 
        "__storage_type__": "0", 
        "__wd_mult__": "1.0"
      }, 
      "inputs": []
    }, 
    {
      "op": "null", 
      "name": "layer3_3_batchnorm0_running_mean", 
      "attrs": {
        "__dtype__": "0", 
        "__init__": "zeros", 
        "__lr_mult__": "1.0", 
        "__shape__": "(256,)", 
        "__storage_type__": "0", 
        "__wd_mult__": "1.0"
      }, 
      "inputs": []
    }, 
    {
      "op": "null", 
      "name": "layer3_3_batchnorm0_running_var", 
      "attrs": {
        "__dtype__": "0", 
        "__init__": "ones", 
        "__lr_mult__": "1.0", 
        "__shape__": "(256,)", 
        "__storage_type__": "0", 
        "__wd_mult__": "1.0"
      }, 
      "inputs": []
    }, 
    {
      "op": "BatchNorm", 
      "name": "layer3_3_batchnorm0_fwd", 
      "attrs": {
        "axis": "1", 
        "eps": "1e-05", 
        "fix_gamma": "False", 
        "momentum": "0.9", 
        "use_global_stats": "False"
      }, 
      "inputs": [[288, 0, 0], [289, 0, 0], [290, 0, 0], [291, 0, 1], [292, 0, 1]]
    }, 
    {
      "op": "Activation", 
      "name": "layer3_3_relu0_fwd", 
      "attrs": {"act_type": "relu"}, 
      "inputs": [[293, 0, 0]]
    }, 
    {
      "op": "null", 
      "name": "layer3_3_conv1_weight", 
      "attrs": {
        "__dtype__": "0", 
        "__lr_mult__": "1.0", 
        "__shape__": "(256, 256, 1, 3, 3)", 
        "__storage_type__": "0", 
        "__wd_mult__": "1.0"
      }, 
      "inputs": []
    }, 
    {
      "op": "Convolution", 
      "name": "layer3_3_conv1_fwd", 
      "attrs": {
        "dilate": "(1, 1, 1)", 
        "kernel": "(1, 3, 3)", 
        "layout": "NCDHW", 
        "no_bias": "True", 
        "num_filter": "256", 
        "num_group": "1", 
        "pad": "(0, 1, 1)", 
        "stride": "(1, 1, 1)"
      }, 
      "inputs": [[294, 0, 0], [295, 0, 0]]
    }, 
    {
      "op": "null", 
      "name": "layer3_3_batchnorm1_gamma", 
      "attrs": {
        "__dtype__": "0", 
        "__init__": "ones", 
        "__lr_mult__": "1.0", 
        "__shape__": "(256,)", 
        "__storage_type__": "0", 
        "__wd_mult__": "1.0"
      }, 
      "inputs": []
    }, 
    {
      "op": "null", 
      "name": "layer3_3_batchnorm1_beta", 
      "attrs": {
        "__dtype__": "0", 
        "__init__": "zeros", 
        "__lr_mult__": "1.0", 
        "__shape__": "(256,)", 
        "__storage_type__": "0", 
        "__wd_mult__": "1.0"
      }, 
      "inputs": []
    }, 
    {
      "op": "null", 
      "name": "layer3_3_batchnorm1_running_mean", 
      "attrs": {
        "__dtype__": "0", 
        "__init__": "zeros", 
        "__lr_mult__": "1.0", 
        "__shape__": "(256,)", 
        "__storage_type__": "0", 
        "__wd_mult__": "1.0"
      }, 
      "inputs": []
    }, 
    {
      "op": "null", 
      "name": "layer3_3_batchnorm1_running_var", 
      "attrs": {
        "__dtype__": "0", 
        "__init__": "ones", 
        "__lr_mult__": "1.0", 
        "__shape__": "(256,)", 
        "__storage_type__": "0", 
        "__wd_mult__": "1.0"
      }, 
      "inputs": []
    }, 
    {
      "op": "BatchNorm", 
      "name": "layer3_3_batchnorm1_fwd", 
      "attrs": {
        "axis": "1", 
        "eps": "1e-05", 
        "fix_gamma": "False", 
        "momentum": "0.9", 
        "use_global_stats": "False"
      }, 
      "inputs": [[296, 0, 0], [297, 0, 0], [298, 0, 0], [299, 0, 1], [300, 0, 1]]
    }, 
    {
      "op": "Activation", 
      "name": "layer3_3_relu0_fwd", 
      "attrs": {"act_type": "relu"}, 
      "inputs": [[301, 0, 0]]
    }, 
    {
      "op": "null", 
      "name": "layer3_3_conv2_weight", 
      "attrs": {
        "__dtype__": "0", 
        "__lr_mult__": "1.0", 
        "__shape__": "(1024, 256, 1, 1, 1)", 
        "__storage_type__": "0", 
        "__wd_mult__": "1.0"
      }, 
      "inputs": []
    }, 
    {
      "op": "Convolution", 
      "name": "layer3_3_conv2_fwd", 
      "attrs": {
        "dilate": "(1, 1, 1)", 
        "kernel": "(1, 1, 1)", 
        "layout": "NCDHW", 
        "no_bias": "True", 
        "num_filter": "1024", 
        "num_group": "1", 
        "pad": "(0, 0, 0)", 
        "stride": "(1, 1, 1)"
      }, 
      "inputs": [[302, 0, 0], [303, 0, 0]]
    }, 
    {
      "op": "null", 
      "name": "layer3_3_batchnorm2_gamma", 
      "attrs": {
        "__dtype__": "0", 
        "__init__": "ones", 
        "__lr_mult__": "1.0", 
        "__shape__": "(1024,)", 
        "__storage_type__": "0", 
        "__wd_mult__": "1.0"
      }, 
      "inputs": []
    }, 
    {
      "op": "null", 
      "name": "layer3_3_batchnorm2_beta", 
      "attrs": {
        "__dtype__": "0", 
        "__init__": "zeros", 
        "__lr_mult__": "1.0", 
        "__shape__": "(1024,)", 
        "__storage_type__": "0", 
        "__wd_mult__": "1.0"
      }, 
      "inputs": []
    }, 
    {
      "op": "null", 
      "name": "layer3_3_batchnorm2_running_mean", 
      "attrs": {
        "__dtype__": "0", 
        "__init__": "zeros", 
        "__lr_mult__": "1.0", 
        "__shape__": "(1024,)", 
        "__storage_type__": "0", 
        "__wd_mult__": "1.0"
      }, 
      "inputs": []
    }, 
    {
      "op": "null", 
      "name": "layer3_3_batchnorm2_running_var", 
      "attrs": {
        "__dtype__": "0", 
        "__init__": "ones", 
        "__lr_mult__": "1.0", 
        "__shape__": "(1024,)", 
        "__storage_type__": "0", 
        "__wd_mult__": "1.0"
      }, 
      "inputs": []
    }, 
    {
      "op": "BatchNorm", 
      "name": "layer3_3_batchnorm2_fwd", 
      "attrs": {
        "axis": "1", 
        "eps": "1e-05", 
        "fix_gamma": "False", 
        "momentum": "0.9", 
        "use_global_stats": "False"
      }, 
      "inputs": [[304, 0, 0], [305, 0, 0], [306, 0, 0], [307, 0, 1], [308, 0, 1]]
    }, 
    {
      "op": "elemwise_add", 
      "name": "layer3_bottleneck3__plus0", 
      "inputs": [[309, 0, 0], [286, 0, 0]]
    }, 
    {
      "op": "Activation", 
      "name": "layer3_bottleneck3_activation0", 
      "attrs": {"act_type": "relu"}, 
      "inputs": [[310, 0, 0]]
    }, 
    {
      "op": "null", 
      "name": "layer3_4_conv0_weight", 
      "attrs": {
        "__dtype__": "0", 
        "__lr_mult__": "1.0", 
        "__shape__": "(256, 1024, 3, 1, 1)", 
        "__storage_type__": "0", 
        "__wd_mult__": "1.0"
      }, 
      "inputs": []
    }, 
    {
      "op": "Convolution", 
      "name": "layer3_4_conv0_fwd", 
      "attrs": {
        "dilate": "(1, 1, 1)", 
        "kernel": "(3, 1, 1)", 
        "layout": "NCDHW", 
        "no_bias": "True", 
        "num_filter": "256", 
        "num_group": "1", 
        "pad": "(1, 0, 0)", 
        "stride": "(1, 1, 1)"
      }, 
      "inputs": [[311, 0, 0], [312, 0, 0]]
    }, 
    {
      "op": "null", 
      "name": "layer3_4_batchnorm0_gamma", 
      "attrs": {
        "__dtype__": "0", 
        "__init__": "ones", 
        "__lr_mult__": "1.0", 
        "__shape__": "(256,)", 
        "__storage_type__": "0", 
        "__wd_mult__": "1.0"
      }, 
      "inputs": []
    }, 
    {
      "op": "null", 
      "name": "layer3_4_batchnorm0_beta", 
      "attrs": {
        "__dtype__": "0", 
        "__init__": "zeros", 
        "__lr_mult__": "1.0", 
        "__shape__": "(256,)", 
        "__storage_type__": "0", 
        "__wd_mult__": "1.0"
      }, 
      "inputs": []
    }, 
    {
      "op": "null", 
      "name": "layer3_4_batchnorm0_running_mean", 
      "attrs": {
        "__dtype__": "0", 
        "__init__": "zeros", 
        "__lr_mult__": "1.0", 
        "__shape__": "(256,)", 
        "__storage_type__": "0", 
        "__wd_mult__": "1.0"
      }, 
      "inputs": []
    }, 
    {
      "op": "null", 
      "name": "layer3_4_batchnorm0_running_var", 
      "attrs": {
        "__dtype__": "0", 
        "__init__": "ones", 
        "__lr_mult__": "1.0", 
        "__shape__": "(256,)", 
        "__storage_type__": "0", 
        "__wd_mult__": "1.0"
      }, 
      "inputs": []
    }, 
    {
      "op": "BatchNorm", 
      "name": "layer3_4_batchnorm0_fwd", 
      "attrs": {
        "axis": "1", 
        "eps": "1e-05", 
        "fix_gamma": "False", 
        "momentum": "0.9", 
        "use_global_stats": "False"
      }, 
      "inputs": [[313, 0, 0], [314, 0, 0], [315, 0, 0], [316, 0, 1], [317, 0, 1]]
    }, 
    {
      "op": "Activation", 
      "name": "layer3_4_relu0_fwd", 
      "attrs": {"act_type": "relu"}, 
      "inputs": [[318, 0, 0]]
    }, 
    {
      "op": "null", 
      "name": "layer3_4_conv1_weight", 
      "attrs": {
        "__dtype__": "0", 
        "__lr_mult__": "1.0", 
        "__shape__": "(256, 256, 1, 3, 3)", 
        "__storage_type__": "0", 
        "__wd_mult__": "1.0"
      }, 
      "inputs": []
    }, 
    {
      "op": "Convolution", 
      "name": "layer3_4_conv1_fwd", 
      "attrs": {
        "dilate": "(1, 1, 1)", 
        "kernel": "(1, 3, 3)", 
        "layout": "NCDHW", 
        "no_bias": "True", 
        "num_filter": "256", 
        "num_group": "1", 
        "pad": "(0, 1, 1)", 
        "stride": "(1, 1, 1)"
      }, 
      "inputs": [[319, 0, 0], [320, 0, 0]]
    }, 
    {
      "op": "null", 
      "name": "layer3_4_batchnorm1_gamma", 
      "attrs": {
        "__dtype__": "0", 
        "__init__": "ones", 
        "__lr_mult__": "1.0", 
        "__shape__": "(256,)", 
        "__storage_type__": "0", 
        "__wd_mult__": "1.0"
      }, 
      "inputs": []
    }, 
    {
      "op": "null", 
      "name": "layer3_4_batchnorm1_beta", 
      "attrs": {
        "__dtype__": "0", 
        "__init__": "zeros", 
        "__lr_mult__": "1.0", 
        "__shape__": "(256,)", 
        "__storage_type__": "0", 
        "__wd_mult__": "1.0"
      }, 
      "inputs": []
    }, 
    {
      "op": "null", 
      "name": "layer3_4_batchnorm1_running_mean", 
      "attrs": {
        "__dtype__": "0", 
        "__init__": "zeros", 
        "__lr_mult__": "1.0", 
        "__shape__": "(256,)", 
        "__storage_type__": "0", 
        "__wd_mult__": "1.0"
      }, 
      "inputs": []
    }, 
    {
      "op": "null", 
      "name": "layer3_4_batchnorm1_running_var", 
      "attrs": {
        "__dtype__": "0", 
        "__init__": "ones", 
        "__lr_mult__": "1.0", 
        "__shape__": "(256,)", 
        "__storage_type__": "0", 
        "__wd_mult__": "1.0"
      }, 
      "inputs": []
    }, 
    {
      "op": "BatchNorm", 
      "name": "layer3_4_batchnorm1_fwd", 
      "attrs": {
        "axis": "1", 
        "eps": "1e-05", 
        "fix_gamma": "False", 
        "momentum": "0.9", 
        "use_global_stats": "False"
      }, 
      "inputs": [[321, 0, 0], [322, 0, 0], [323, 0, 0], [324, 0, 1], [325, 0, 1]]
    }, 
    {
      "op": "Activation", 
      "name": "layer3_4_relu0_fwd", 
      "attrs": {"act_type": "relu"}, 
      "inputs": [[326, 0, 0]]
    }, 
    {
      "op": "null", 
      "name": "layer3_4_conv2_weight", 
      "attrs": {
        "__dtype__": "0", 
        "__lr_mult__": "1.0", 
        "__shape__": "(1024, 256, 1, 1, 1)", 
        "__storage_type__": "0", 
        "__wd_mult__": "1.0"
      }, 
      "inputs": []
    }, 
    {
      "op": "Convolution", 
      "name": "layer3_4_conv2_fwd", 
      "attrs": {
        "dilate": "(1, 1, 1)", 
        "kernel": "(1, 1, 1)", 
        "layout": "NCDHW", 
        "no_bias": "True", 
        "num_filter": "1024", 
        "num_group": "1", 
        "pad": "(0, 0, 0)", 
        "stride": "(1, 1, 1)"
      }, 
      "inputs": [[327, 0, 0], [328, 0, 0]]
    }, 
    {
      "op": "null", 
      "name": "layer3_4_batchnorm2_gamma", 
      "attrs": {
        "__dtype__": "0", 
        "__init__": "ones", 
        "__lr_mult__": "1.0", 
        "__shape__": "(1024,)", 
        "__storage_type__": "0", 
        "__wd_mult__": "1.0"
      }, 
      "inputs": []
    }, 
    {
      "op": "null", 
      "name": "layer3_4_batchnorm2_beta", 
      "attrs": {
        "__dtype__": "0", 
        "__init__": "zeros", 
        "__lr_mult__": "1.0", 
        "__shape__": "(1024,)", 
        "__storage_type__": "0", 
        "__wd_mult__": "1.0"
      }, 
      "inputs": []
    }, 
    {
      "op": "null", 
      "name": "layer3_4_batchnorm2_running_mean", 
      "attrs": {
        "__dtype__": "0", 
        "__init__": "zeros", 
        "__lr_mult__": "1.0", 
        "__shape__": "(1024,)", 
        "__storage_type__": "0", 
        "__wd_mult__": "1.0"
      }, 
      "inputs": []
    }, 
    {
      "op": "null", 
      "name": "layer3_4_batchnorm2_running_var", 
      "attrs": {
        "__dtype__": "0", 
        "__init__": "ones", 
        "__lr_mult__": "1.0", 
        "__shape__": "(1024,)", 
        "__storage_type__": "0", 
        "__wd_mult__": "1.0"
      }, 
      "inputs": []
    }, 
    {
      "op": "BatchNorm", 
      "name": "layer3_4_batchnorm2_fwd", 
      "attrs": {
        "axis": "1", 
        "eps": "1e-05", 
        "fix_gamma": "False", 
        "momentum": "0.9", 
        "use_global_stats": "False"
      }, 
      "inputs": [[329, 0, 0], [330, 0, 0], [331, 0, 0], [332, 0, 1], [333, 0, 1]]
    }, 
    {
      "op": "elemwise_add", 
      "name": "layer3_bottleneck4__plus0", 
      "inputs": [[334, 0, 0], [311, 0, 0]]
    }, 
    {
      "op": "Activation", 
      "name": "layer3_bottleneck4_activation0", 
      "attrs": {"act_type": "relu"}, 
      "inputs": [[335, 0, 0]]
    }, 
    {
      "op": "null", 
      "name": "layer3_5_conv0_weight", 
      "attrs": {
        "__dtype__": "0", 
        "__lr_mult__": "1.0", 
        "__shape__": "(256, 1024, 1, 1, 1)", 
        "__storage_type__": "0", 
        "__wd_mult__": "1.0"
      }, 
      "inputs": []
    }, 
    {
      "op": "Convolution", 
      "name": "layer3_5_conv0_fwd", 
      "attrs": {
        "dilate": "(1, 1, 1)", 
        "kernel": "(1, 1, 1)", 
        "layout": "NCDHW", 
        "no_bias": "True", 
        "num_filter": "256", 
        "num_group": "1", 
        "pad": "(0, 0, 0)", 
        "stride": "(1, 1, 1)"
      }, 
      "inputs": [[336, 0, 0], [337, 0, 0]]
    }, 
    {
      "op": "null", 
      "name": "layer3_5_batchnorm0_gamma", 
      "attrs": {
        "__dtype__": "0", 
        "__init__": "ones", 
        "__lr_mult__": "1.0", 
        "__shape__": "(256,)", 
        "__storage_type__": "0", 
        "__wd_mult__": "1.0"
      }, 
      "inputs": []
    }, 
    {
      "op": "null", 
      "name": "layer3_5_batchnorm0_beta", 
      "attrs": {
        "__dtype__": "0", 
        "__init__": "zeros", 
        "__lr_mult__": "1.0", 
        "__shape__": "(256,)", 
        "__storage_type__": "0", 
        "__wd_mult__": "1.0"
      }, 
      "inputs": []
    }, 
    {
      "op": "null", 
      "name": "layer3_5_batchnorm0_running_mean", 
      "attrs": {
        "__dtype__": "0", 
        "__init__": "zeros", 
        "__lr_mult__": "1.0", 
        "__shape__": "(256,)", 
        "__storage_type__": "0", 
        "__wd_mult__": "1.0"
      }, 
      "inputs": []
    }, 
    {
      "op": "null", 
      "name": "layer3_5_batchnorm0_running_var", 
      "attrs": {
        "__dtype__": "0", 
        "__init__": "ones", 
        "__lr_mult__": "1.0", 
        "__shape__": "(256,)", 
        "__storage_type__": "0", 
        "__wd_mult__": "1.0"
      }, 
      "inputs": []
    }, 
    {
      "op": "BatchNorm", 
      "name": "layer3_5_batchnorm0_fwd", 
      "attrs": {
        "axis": "1", 
        "eps": "1e-05", 
        "fix_gamma": "False", 
        "momentum": "0.9", 
        "use_global_stats": "False"
      }, 
      "inputs": [[338, 0, 0], [339, 0, 0], [340, 0, 0], [341, 0, 1], [342, 0, 1]]
    }, 
    {
      "op": "Activation", 
      "name": "layer3_5_relu0_fwd", 
      "attrs": {"act_type": "relu"}, 
      "inputs": [[343, 0, 0]]
    }, 
    {
      "op": "null", 
      "name": "layer3_5_conv1_weight", 
      "attrs": {
        "__dtype__": "0", 
        "__lr_mult__": "1.0", 
        "__shape__": "(256, 256, 1, 3, 3)", 
        "__storage_type__": "0", 
        "__wd_mult__": "1.0"
      }, 
      "inputs": []
    }, 
    {
      "op": "Convolution", 
      "name": "layer3_5_conv1_fwd", 
      "attrs": {
        "dilate": "(1, 1, 1)", 
        "kernel": "(1, 3, 3)", 
        "layout": "NCDHW", 
        "no_bias": "True", 
        "num_filter": "256", 
        "num_group": "1", 
        "pad": "(0, 1, 1)", 
        "stride": "(1, 1, 1)"
      }, 
      "inputs": [[344, 0, 0], [345, 0, 0]]
    }, 
    {
      "op": "null", 
      "name": "layer3_5_batchnorm1_gamma", 
      "attrs": {
        "__dtype__": "0", 
        "__init__": "ones", 
        "__lr_mult__": "1.0", 
        "__shape__": "(256,)", 
        "__storage_type__": "0", 
        "__wd_mult__": "1.0"
      }, 
      "inputs": []
    }, 
    {
      "op": "null", 
      "name": "layer3_5_batchnorm1_beta", 
      "attrs": {
        "__dtype__": "0", 
        "__init__": "zeros", 
        "__lr_mult__": "1.0", 
        "__shape__": "(256,)", 
        "__storage_type__": "0", 
        "__wd_mult__": "1.0"
      }, 
      "inputs": []
    }, 
    {
      "op": "null", 
      "name": "layer3_5_batchnorm1_running_mean", 
      "attrs": {
        "__dtype__": "0", 
        "__init__": "zeros", 
        "__lr_mult__": "1.0", 
        "__shape__": "(256,)", 
        "__storage_type__": "0", 
        "__wd_mult__": "1.0"
      }, 
      "inputs": []
    }, 
    {
      "op": "null", 
      "name": "layer3_5_batchnorm1_running_var", 
      "attrs": {
        "__dtype__": "0", 
        "__init__": "ones", 
        "__lr_mult__": "1.0", 
        "__shape__": "(256,)", 
        "__storage_type__": "0", 
        "__wd_mult__": "1.0"
      }, 
      "inputs": []
    }, 
    {
      "op": "BatchNorm", 
      "name": "layer3_5_batchnorm1_fwd", 
      "attrs": {
        "axis": "1", 
        "eps": "1e-05", 
        "fix_gamma": "False", 
        "momentum": "0.9", 
        "use_global_stats": "False"
      }, 
      "inputs": [[346, 0, 0], [347, 0, 0], [348, 0, 0], [349, 0, 1], [350, 0, 1]]
    }, 
    {
      "op": "Activation", 
      "name": "layer3_5_relu0_fwd", 
      "attrs": {"act_type": "relu"}, 
      "inputs": [[351, 0, 0]]
    }, 
    {
      "op": "null", 
      "name": "layer3_5_conv2_weight", 
      "attrs": {
        "__dtype__": "0", 
        "__lr_mult__": "1.0", 
        "__shape__": "(1024, 256, 1, 1, 1)", 
        "__storage_type__": "0", 
        "__wd_mult__": "1.0"
      }, 
      "inputs": []
    }, 
    {
      "op": "Convolution", 
      "name": "layer3_5_conv2_fwd", 
      "attrs": {
        "dilate": "(1, 1, 1)", 
        "kernel": "(1, 1, 1)", 
        "layout": "NCDHW", 
        "no_bias": "True", 
        "num_filter": "1024", 
        "num_group": "1", 
        "pad": "(0, 0, 0)", 
        "stride": "(1, 1, 1)"
      }, 
      "inputs": [[352, 0, 0], [353, 0, 0]]
    }, 
    {
      "op": "null", 
      "name": "layer3_5_batchnorm2_gamma", 
      "attrs": {
        "__dtype__": "0", 
        "__init__": "ones", 
        "__lr_mult__": "1.0", 
        "__shape__": "(1024,)", 
        "__storage_type__": "0", 
        "__wd_mult__": "1.0"
      }, 
      "inputs": []
    }, 
    {
      "op": "null", 
      "name": "layer3_5_batchnorm2_beta", 
      "attrs": {
        "__dtype__": "0", 
        "__init__": "zeros", 
        "__lr_mult__": "1.0", 
        "__shape__": "(1024,)", 
        "__storage_type__": "0", 
        "__wd_mult__": "1.0"
      }, 
      "inputs": []
    }, 
    {
      "op": "null", 
      "name": "layer3_5_batchnorm2_running_mean", 
      "attrs": {
        "__dtype__": "0", 
        "__init__": "zeros", 
        "__lr_mult__": "1.0", 
        "__shape__": "(1024,)", 
        "__storage_type__": "0", 
        "__wd_mult__": "1.0"
      }, 
      "inputs": []
    }, 
    {
      "op": "null", 
      "name": "layer3_5_batchnorm2_running_var", 
      "attrs": {
        "__dtype__": "0", 
        "__init__": "ones", 
        "__lr_mult__": "1.0", 
        "__shape__": "(1024,)", 
        "__storage_type__": "0", 
        "__wd_mult__": "1.0"
      }, 
      "inputs": []
    }, 
    {
      "op": "BatchNorm", 
      "name": "layer3_5_batchnorm2_fwd", 
      "attrs": {
        "axis": "1", 
        "eps": "1e-05", 
        "fix_gamma": "False", 
        "momentum": "0.9", 
        "use_global_stats": "False"
      }, 
      "inputs": [[354, 0, 0], [355, 0, 0], [356, 0, 0], [357, 0, 1], [358, 0, 1]]
    }, 
    {
      "op": "elemwise_add", 
      "name": "layer3_bottleneck5__plus0", 
      "inputs": [[359, 0, 0], [336, 0, 0]]
    }, 
    {
      "op": "Activation", 
      "name": "layer3_bottleneck5_activation0", 
      "attrs": {"act_type": "relu"}, 
      "inputs": [[360, 0, 0]]
    }, 
    {
      "op": "null", 
      "name": "layer4_0_conv0_weight", 
      "attrs": {
        "__dtype__": "0", 
        "__lr_mult__": "1.0", 
        "__shape__": "(512, 1024, 1, 1, 1)", 
        "__storage_type__": "0", 
        "__wd_mult__": "1.0"
      }, 
      "inputs": []
    }, 
    {
      "op": "Convolution", 
      "name": "layer4_0_conv0_fwd", 
      "attrs": {
        "dilate": "(1, 1, 1)", 
        "kernel": "(1, 1, 1)", 
        "layout": "NCDHW", 
        "no_bias": "True", 
        "num_filter": "512", 
        "num_group": "1", 
        "pad": "(0, 0, 0)", 
        "stride": "(1, 1, 1)"
      }, 
      "inputs": [[361, 0, 0], [362, 0, 0]]
    }, 
    {
      "op": "null", 
      "name": "layer4_0_batchnorm0_gamma", 
      "attrs": {
        "__dtype__": "0", 
        "__init__": "ones", 
        "__lr_mult__": "1.0", 
        "__shape__": "(512,)", 
        "__storage_type__": "0", 
        "__wd_mult__": "1.0"
      }, 
      "inputs": []
    }, 
    {
      "op": "null", 
      "name": "layer4_0_batchnorm0_beta", 
      "attrs": {
        "__dtype__": "0", 
        "__init__": "zeros", 
        "__lr_mult__": "1.0", 
        "__shape__": "(512,)", 
        "__storage_type__": "0", 
        "__wd_mult__": "1.0"
      }, 
      "inputs": []
    }, 
    {
      "op": "null", 
      "name": "layer4_0_batchnorm0_running_mean", 
      "attrs": {
        "__dtype__": "0", 
        "__init__": "zeros", 
        "__lr_mult__": "1.0", 
        "__shape__": "(512,)", 
        "__storage_type__": "0", 
        "__wd_mult__": "1.0"
      }, 
      "inputs": []
    }, 
    {
      "op": "null", 
      "name": "layer4_0_batchnorm0_running_var", 
      "attrs": {
        "__dtype__": "0", 
        "__init__": "ones", 
        "__lr_mult__": "1.0", 
        "__shape__": "(512,)", 
        "__storage_type__": "0", 
        "__wd_mult__": "1.0"
      }, 
      "inputs": []
    }, 
    {
      "op": "BatchNorm", 
      "name": "layer4_0_batchnorm0_fwd", 
      "attrs": {
        "axis": "1", 
        "eps": "1e-05", 
        "fix_gamma": "False", 
        "momentum": "0.9", 
        "use_global_stats": "False"
      }, 
      "inputs": [[363, 0, 0], [364, 0, 0], [365, 0, 0], [366, 0, 1], [367, 0, 1]]
    }, 
    {
      "op": "Activation", 
      "name": "layer4_0_relu0_fwd", 
      "attrs": {"act_type": "relu"}, 
      "inputs": [[368, 0, 0]]
    }, 
    {
      "op": "null", 
      "name": "layer4_0_conv1_weight", 
      "attrs": {
        "__dtype__": "0", 
        "__lr_mult__": "1.0", 
        "__shape__": "(512, 512, 1, 3, 3)", 
        "__storage_type__": "0", 
        "__wd_mult__": "1.0"
      }, 
      "inputs": []
    }, 
    {
      "op": "Convolution", 
      "name": "layer4_0_conv1_fwd", 
      "attrs": {
        "dilate": "(1, 1, 1)", 
        "kernel": "(1, 3, 3)", 
        "layout": "NCDHW", 
        "no_bias": "True", 
        "num_filter": "512", 
        "num_group": "1", 
        "pad": "(0, 1, 1)", 
        "stride": "(1, 2, 2)"
      }, 
      "inputs": [[369, 0, 0], [370, 0, 0]]
    }, 
    {
      "op": "null", 
      "name": "layer4_0_batchnorm1_gamma", 
      "attrs": {
        "__dtype__": "0", 
        "__init__": "ones", 
        "__lr_mult__": "1.0", 
        "__shape__": "(512,)", 
        "__storage_type__": "0", 
        "__wd_mult__": "1.0"
      }, 
      "inputs": []
    }, 
    {
      "op": "null", 
      "name": "layer4_0_batchnorm1_beta", 
      "attrs": {
        "__dtype__": "0", 
        "__init__": "zeros", 
        "__lr_mult__": "1.0", 
        "__shape__": "(512,)", 
        "__storage_type__": "0", 
        "__wd_mult__": "1.0"
      }, 
      "inputs": []
    }, 
    {
      "op": "null", 
      "name": "layer4_0_batchnorm1_running_mean", 
      "attrs": {
        "__dtype__": "0", 
        "__init__": "zeros", 
        "__lr_mult__": "1.0", 
        "__shape__": "(512,)", 
        "__storage_type__": "0", 
        "__wd_mult__": "1.0"
      }, 
      "inputs": []
    }, 
    {
      "op": "null", 
      "name": "layer4_0_batchnorm1_running_var", 
      "attrs": {
        "__dtype__": "0", 
        "__init__": "ones", 
        "__lr_mult__": "1.0", 
        "__shape__": "(512,)", 
        "__storage_type__": "0", 
        "__wd_mult__": "1.0"
      }, 
      "inputs": []
    }, 
    {
      "op": "BatchNorm", 
      "name": "layer4_0_batchnorm1_fwd", 
      "attrs": {
        "axis": "1", 
        "eps": "1e-05", 
        "fix_gamma": "False", 
        "momentum": "0.9", 
        "use_global_stats": "False"
      }, 
      "inputs": [[371, 0, 0], [372, 0, 0], [373, 0, 0], [374, 0, 1], [375, 0, 1]]
    }, 
    {
      "op": "Activation", 
      "name": "layer4_0_relu0_fwd", 
      "attrs": {"act_type": "relu"}, 
      "inputs": [[376, 0, 0]]
    }, 
    {
      "op": "null", 
      "name": "layer4_0_conv2_weight", 
      "attrs": {
        "__dtype__": "0", 
        "__lr_mult__": "1.0", 
        "__shape__": "(2048, 512, 1, 1, 1)", 
        "__storage_type__": "0", 
        "__wd_mult__": "1.0"
      }, 
      "inputs": []
    }, 
    {
      "op": "Convolution", 
      "name": "layer4_0_conv2_fwd", 
      "attrs": {
        "dilate": "(1, 1, 1)", 
        "kernel": "(1, 1, 1)", 
        "layout": "NCDHW", 
        "no_bias": "True", 
        "num_filter": "2048", 
        "num_group": "1", 
        "pad": "(0, 0, 0)", 
        "stride": "(1, 1, 1)"
      }, 
      "inputs": [[377, 0, 0], [378, 0, 0]]
    }, 
    {
      "op": "null", 
      "name": "layer4_0_batchnorm2_gamma", 
      "attrs": {
        "__dtype__": "0", 
        "__init__": "ones", 
        "__lr_mult__": "1.0", 
        "__shape__": "(2048,)", 
        "__storage_type__": "0", 
        "__wd_mult__": "1.0"
      }, 
      "inputs": []
    }, 
    {
      "op": "null", 
      "name": "layer4_0_batchnorm2_beta", 
      "attrs": {
        "__dtype__": "0", 
        "__init__": "zeros", 
        "__lr_mult__": "1.0", 
        "__shape__": "(2048,)", 
        "__storage_type__": "0", 
        "__wd_mult__": "1.0"
      }, 
      "inputs": []
    }, 
    {
      "op": "null", 
      "name": "layer4_0_batchnorm2_running_mean", 
      "attrs": {
        "__dtype__": "0", 
        "__init__": "zeros", 
        "__lr_mult__": "1.0", 
        "__shape__": "(2048,)", 
        "__storage_type__": "0", 
        "__wd_mult__": "1.0"
      }, 
      "inputs": []
    }, 
    {
      "op": "null", 
      "name": "layer4_0_batchnorm2_running_var", 
      "attrs": {
        "__dtype__": "0", 
        "__init__": "ones", 
        "__lr_mult__": "1.0", 
        "__shape__": "(2048,)", 
        "__storage_type__": "0", 
        "__wd_mult__": "1.0"
      }, 
      "inputs": []
    }, 
    {
      "op": "BatchNorm", 
      "name": "layer4_0_batchnorm2_fwd", 
      "attrs": {
        "axis": "1", 
        "eps": "1e-05", 
        "fix_gamma": "False", 
        "momentum": "0.9", 
        "use_global_stats": "False"
      }, 
      "inputs": [[379, 0, 0], [380, 0, 0], [381, 0, 0], [382, 0, 1], [383, 0, 1]]
    }, 
    {
      "op": "null", 
      "name": "layer4_downsample_conv0_weight", 
      "attrs": {
        "__dtype__": "0", 
        "__lr_mult__": "1.0", 
        "__shape__": "(2048, 1024, 1, 1, 1)", 
        "__storage_type__": "0", 
        "__wd_mult__": "1.0"
      }, 
      "inputs": []
    }, 
    {
      "op": "Convolution", 
      "name": "layer4_downsample_conv0_fwd", 
      "attrs": {
        "dilate": "(1, 1, 1)", 
        "kernel": "(1, 1, 1)", 
        "layout": "NCDHW", 
        "no_bias": "True", 
        "num_filter": "2048", 
        "num_group": "1", 
        "pad": "(0, 0, 0)", 
        "stride": "(1, 2, 2)"
      }, 
      "inputs": [[361, 0, 0], [385, 0, 0]]
    }, 
    {
      "op": "null", 
      "name": "layer4_downsample_batchnorm0_gamma", 
      "attrs": {
        "__dtype__": "0", 
        "__init__": "ones", 
        "__lr_mult__": "1.0", 
        "__shape__": "(2048,)", 
        "__storage_type__": "0", 
        "__wd_mult__": "1.0"
      }, 
      "inputs": []
    }, 
    {
      "op": "null", 
      "name": "layer4_downsample_batchnorm0_beta", 
      "attrs": {
        "__dtype__": "0", 
        "__init__": "zeros", 
        "__lr_mult__": "1.0", 
        "__shape__": "(2048,)", 
        "__storage_type__": "0", 
        "__wd_mult__": "1.0"
      }, 
      "inputs": []
    }, 
    {
      "op": "null", 
      "name": "layer4_downsample_batchnorm0_running_mean", 
      "attrs": {
        "__dtype__": "0", 
        "__init__": "zeros", 
        "__lr_mult__": "1.0", 
        "__shape__": "(2048,)", 
        "__storage_type__": "0", 
        "__wd_mult__": "1.0"
      }, 
      "inputs": []
    }, 
    {
      "op": "null", 
      "name": "layer4_downsample_batchnorm0_running_var", 
      "attrs": {
        "__dtype__": "0", 
        "__init__": "ones", 
        "__lr_mult__": "1.0", 
        "__shape__": "(2048,)", 
        "__storage_type__": "0", 
        "__wd_mult__": "1.0"
      }, 
      "inputs": []
    }, 
    {
      "op": "BatchNorm", 
      "name": "layer4_downsample_batchnorm0_fwd", 
      "attrs": {
        "axis": "1", 
        "eps": "1e-05", 
        "fix_gamma": "False", 
        "momentum": "0.9", 
        "use_global_stats": "True"
      }, 
      "inputs": [[386, 0, 0], [387, 0, 0], [388, 0, 0], [389, 0, 1], [390, 0, 1]]
    }, 
    {
      "op": "elemwise_add", 
      "name": "layer4_bottleneck0__plus0", 
      "inputs": [[384, 0, 0], [391, 0, 0]]
    }, 
    {
      "op": "Activation", 
      "name": "layer4_bottleneck0_activation0", 
      "attrs": {"act_type": "relu"}, 
      "inputs": [[392, 0, 0]]
    }, 
    {
      "op": "null", 
      "name": "layer4_1_conv0_weight", 
      "attrs": {
        "__dtype__": "0", 
        "__lr_mult__": "1.0", 
        "__shape__": "(512, 2048, 3, 1, 1)", 
        "__storage_type__": "0", 
        "__wd_mult__": "1.0"
      }, 
      "inputs": []
    }, 
    {
      "op": "Convolution", 
      "name": "layer4_1_conv0_fwd", 
      "attrs": {
        "dilate": "(1, 1, 1)", 
        "kernel": "(3, 1, 1)", 
        "layout": "NCDHW", 
        "no_bias": "True", 
        "num_filter": "512", 
        "num_group": "1", 
        "pad": "(1, 0, 0)", 
        "stride": "(1, 1, 1)"
      }, 
      "inputs": [[393, 0, 0], [394, 0, 0]]
    }, 
    {
      "op": "null", 
      "name": "layer4_1_batchnorm0_gamma", 
      "attrs": {
        "__dtype__": "0", 
        "__init__": "ones", 
        "__lr_mult__": "1.0", 
        "__shape__": "(512,)", 
        "__storage_type__": "0", 
        "__wd_mult__": "1.0"
      }, 
      "inputs": []
    }, 
    {
      "op": "null", 
      "name": "layer4_1_batchnorm0_beta", 
      "attrs": {
        "__dtype__": "0", 
        "__init__": "zeros", 
        "__lr_mult__": "1.0", 
        "__shape__": "(512,)", 
        "__storage_type__": "0", 
        "__wd_mult__": "1.0"
      }, 
      "inputs": []
    }, 
    {
      "op": "null", 
      "name": "layer4_1_batchnorm0_running_mean", 
      "attrs": {
        "__dtype__": "0", 
        "__init__": "zeros", 
        "__lr_mult__": "1.0", 
        "__shape__": "(512,)", 
        "__storage_type__": "0", 
        "__wd_mult__": "1.0"
      }, 
      "inputs": []
    }, 
    {
      "op": "null", 
      "name": "layer4_1_batchnorm0_running_var", 
      "attrs": {
        "__dtype__": "0", 
        "__init__": "ones", 
        "__lr_mult__": "1.0", 
        "__shape__": "(512,)", 
        "__storage_type__": "0", 
        "__wd_mult__": "1.0"
      }, 
      "inputs": []
    }, 
    {
      "op": "BatchNorm", 
      "name": "layer4_1_batchnorm0_fwd", 
      "attrs": {
        "axis": "1", 
        "eps": "1e-05", 
        "fix_gamma": "False", 
        "momentum": "0.9", 
        "use_global_stats": "False"
      }, 
      "inputs": [[395, 0, 0], [396, 0, 0], [397, 0, 0], [398, 0, 1], [399, 0, 1]]
    }, 
    {
      "op": "Activation", 
      "name": "layer4_1_relu0_fwd", 
      "attrs": {"act_type": "relu"}, 
      "inputs": [[400, 0, 0]]
    }, 
    {
      "op": "null", 
      "name": "layer4_1_conv1_weight", 
      "attrs": {
        "__dtype__": "0", 
        "__lr_mult__": "1.0", 
        "__shape__": "(512, 512, 1, 3, 3)", 
        "__storage_type__": "0", 
        "__wd_mult__": "1.0"
      }, 
      "inputs": []
    }, 
    {
      "op": "Convolution", 
      "name": "layer4_1_conv1_fwd", 
      "attrs": {
        "dilate": "(1, 1, 1)", 
        "kernel": "(1, 3, 3)", 
        "layout": "NCDHW", 
        "no_bias": "True", 
        "num_filter": "512", 
        "num_group": "1", 
        "pad": "(0, 1, 1)", 
        "stride": "(1, 1, 1)"
      }, 
      "inputs": [[401, 0, 0], [402, 0, 0]]
    }, 
    {
      "op": "null", 
      "name": "layer4_1_batchnorm1_gamma", 
      "attrs": {
        "__dtype__": "0", 
        "__init__": "ones", 
        "__lr_mult__": "1.0", 
        "__shape__": "(512,)", 
        "__storage_type__": "0", 
        "__wd_mult__": "1.0"
      }, 
      "inputs": []
    }, 
    {
      "op": "null", 
      "name": "layer4_1_batchnorm1_beta", 
      "attrs": {
        "__dtype__": "0", 
        "__init__": "zeros", 
        "__lr_mult__": "1.0", 
        "__shape__": "(512,)", 
        "__storage_type__": "0", 
        "__wd_mult__": "1.0"
      }, 
      "inputs": []
    }, 
    {
      "op": "null", 
      "name": "layer4_1_batchnorm1_running_mean", 
      "attrs": {
        "__dtype__": "0", 
        "__init__": "zeros", 
        "__lr_mult__": "1.0", 
        "__shape__": "(512,)", 
        "__storage_type__": "0", 
        "__wd_mult__": "1.0"
      }, 
      "inputs": []
    }, 
    {
      "op": "null", 
      "name": "layer4_1_batchnorm1_running_var", 
      "attrs": {
        "__dtype__": "0", 
        "__init__": "ones", 
        "__lr_mult__": "1.0", 
        "__shape__": "(512,)", 
        "__storage_type__": "0", 
        "__wd_mult__": "1.0"
      }, 
      "inputs": []
    }, 
    {
      "op": "BatchNorm", 
      "name": "layer4_1_batchnorm1_fwd", 
      "attrs": {
        "axis": "1", 
        "eps": "1e-05", 
        "fix_gamma": "False", 
        "momentum": "0.9", 
        "use_global_stats": "False"
      }, 
      "inputs": [[403, 0, 0], [404, 0, 0], [405, 0, 0], [406, 0, 1], [407, 0, 1]]
    }, 
    {
      "op": "Activation", 
      "name": "layer4_1_relu0_fwd", 
      "attrs": {"act_type": "relu"}, 
      "inputs": [[408, 0, 0]]
    }, 
    {
      "op": "null", 
      "name": "layer4_1_conv2_weight", 
      "attrs": {
        "__dtype__": "0", 
        "__lr_mult__": "1.0", 
        "__shape__": "(2048, 512, 1, 1, 1)", 
        "__storage_type__": "0", 
        "__wd_mult__": "1.0"
      }, 
      "inputs": []
    }, 
    {
      "op": "Convolution", 
      "name": "layer4_1_conv2_fwd", 
      "attrs": {
        "dilate": "(1, 1, 1)", 
        "kernel": "(1, 1, 1)", 
        "layout": "NCDHW", 
        "no_bias": "True", 
        "num_filter": "2048", 
        "num_group": "1", 
        "pad": "(0, 0, 0)", 
        "stride": "(1, 1, 1)"
      }, 
      "inputs": [[409, 0, 0], [410, 0, 0]]
    }, 
    {
      "op": "null", 
      "name": "layer4_1_batchnorm2_gamma", 
      "attrs": {
        "__dtype__": "0", 
        "__init__": "ones", 
        "__lr_mult__": "1.0", 
        "__shape__": "(2048,)", 
        "__storage_type__": "0", 
        "__wd_mult__": "1.0"
      }, 
      "inputs": []
    }, 
    {
      "op": "null", 
      "name": "layer4_1_batchnorm2_beta", 
      "attrs": {
        "__dtype__": "0", 
        "__init__": "zeros", 
        "__lr_mult__": "1.0", 
        "__shape__": "(2048,)", 
        "__storage_type__": "0", 
        "__wd_mult__": "1.0"
      }, 
      "inputs": []
    }, 
    {
      "op": "null", 
      "name": "layer4_1_batchnorm2_running_mean", 
      "attrs": {
        "__dtype__": "0", 
        "__init__": "zeros", 
        "__lr_mult__": "1.0", 
        "__shape__": "(2048,)", 
        "__storage_type__": "0", 
        "__wd_mult__": "1.0"
      }, 
      "inputs": []
    }, 
    {
      "op": "null", 
      "name": "layer4_1_batchnorm2_running_var", 
      "attrs": {
        "__dtype__": "0", 
        "__init__": "ones", 
        "__lr_mult__": "1.0", 
        "__shape__": "(2048,)", 
        "__storage_type__": "0", 
        "__wd_mult__": "1.0"
      }, 
      "inputs": []
    }, 
    {
      "op": "BatchNorm", 
      "name": "layer4_1_batchnorm2_fwd", 
      "attrs": {
        "axis": "1", 
        "eps": "1e-05", 
        "fix_gamma": "False", 
        "momentum": "0.9", 
        "use_global_stats": "False"
      }, 
      "inputs": [[411, 0, 0], [412, 0, 0], [413, 0, 0], [414, 0, 1], [415, 0, 1]]
    }, 
    {
      "op": "elemwise_add", 
      "name": "layer4_bottleneck1__plus0", 
      "inputs": [[416, 0, 0], [393, 0, 0]]
    }, 
    {
      "op": "Activation", 
      "name": "layer4_bottleneck1_activation0", 
      "attrs": {"act_type": "relu"}, 
      "inputs": [[417, 0, 0]]
    }, 
    {
      "op": "null", 
      "name": "layer4_2_conv0_weight", 
      "attrs": {
        "__dtype__": "0", 
        "__lr_mult__": "1.0", 
        "__shape__": "(512, 2048, 1, 1, 1)", 
        "__storage_type__": "0", 
        "__wd_mult__": "1.0"
      }, 
      "inputs": []
    }, 
    {
      "op": "Convolution", 
      "name": "layer4_2_conv0_fwd", 
      "attrs": {
        "dilate": "(1, 1, 1)", 
        "kernel": "(1, 1, 1)", 
        "layout": "NCDHW", 
        "no_bias": "True", 
        "num_filter": "512", 
        "num_group": "1", 
        "pad": "(0, 0, 0)", 
        "stride": "(1, 1, 1)"
      }, 
      "inputs": [[418, 0, 0], [419, 0, 0]]
    }, 
    {
      "op": "null", 
      "name": "layer4_2_batchnorm0_gamma", 
      "attrs": {
        "__dtype__": "0", 
        "__init__": "ones", 
        "__lr_mult__": "1.0", 
        "__shape__": "(512,)", 
        "__storage_type__": "0", 
        "__wd_mult__": "1.0"
      }, 
      "inputs": []
    }, 
    {
      "op": "null", 
      "name": "layer4_2_batchnorm0_beta", 
      "attrs": {
        "__dtype__": "0", 
        "__init__": "zeros", 
        "__lr_mult__": "1.0", 
        "__shape__": "(512,)", 
        "__storage_type__": "0", 
        "__wd_mult__": "1.0"
      }, 
      "inputs": []
    }, 
    {
      "op": "null", 
      "name": "layer4_2_batchnorm0_running_mean", 
      "attrs": {
        "__dtype__": "0", 
        "__init__": "zeros", 
        "__lr_mult__": "1.0", 
        "__shape__": "(512,)", 
        "__storage_type__": "0", 
        "__wd_mult__": "1.0"
      }, 
      "inputs": []
    }, 
    {
      "op": "null", 
      "name": "layer4_2_batchnorm0_running_var", 
      "attrs": {
        "__dtype__": "0", 
        "__init__": "ones", 
        "__lr_mult__": "1.0", 
        "__shape__": "(512,)", 
        "__storage_type__": "0", 
        "__wd_mult__": "1.0"
      }, 
      "inputs": []
    }, 
    {
      "op": "BatchNorm", 
      "name": "layer4_2_batchnorm0_fwd", 
      "attrs": {
        "axis": "1", 
        "eps": "1e-05", 
        "fix_gamma": "False", 
        "momentum": "0.9", 
        "use_global_stats": "False"
      }, 
      "inputs": [[420, 0, 0], [421, 0, 0], [422, 0, 0], [423, 0, 1], [424, 0, 1]]
    }, 
    {
      "op": "Activation", 
      "name": "layer4_2_relu0_fwd", 
      "attrs": {"act_type": "relu"}, 
      "inputs": [[425, 0, 0]]
    }, 
    {
      "op": "null", 
      "name": "layer4_2_conv1_weight", 
      "attrs": {
        "__dtype__": "0", 
        "__lr_mult__": "1.0", 
        "__shape__": "(512, 512, 1, 3, 3)", 
        "__storage_type__": "0", 
        "__wd_mult__": "1.0"
      }, 
      "inputs": []
    }, 
    {
      "op": "Convolution", 
      "name": "layer4_2_conv1_fwd", 
      "attrs": {
        "dilate": "(1, 1, 1)", 
        "kernel": "(1, 3, 3)", 
        "layout": "NCDHW", 
        "no_bias": "True", 
        "num_filter": "512", 
        "num_group": "1", 
        "pad": "(0, 1, 1)", 
        "stride": "(1, 1, 1)"
      }, 
      "inputs": [[426, 0, 0], [427, 0, 0]]
    }, 
    {
      "op": "null", 
      "name": "layer4_2_batchnorm1_gamma", 
      "attrs": {
        "__dtype__": "0", 
        "__init__": "ones", 
        "__lr_mult__": "1.0", 
        "__shape__": "(512,)", 
        "__storage_type__": "0", 
        "__wd_mult__": "1.0"
      }, 
      "inputs": []
    }, 
    {
      "op": "null", 
      "name": "layer4_2_batchnorm1_beta", 
      "attrs": {
        "__dtype__": "0", 
        "__init__": "zeros", 
        "__lr_mult__": "1.0", 
        "__shape__": "(512,)", 
        "__storage_type__": "0", 
        "__wd_mult__": "1.0"
      }, 
      "inputs": []
    }, 
    {
      "op": "null", 
      "name": "layer4_2_batchnorm1_running_mean", 
      "attrs": {
        "__dtype__": "0", 
        "__init__": "zeros", 
        "__lr_mult__": "1.0", 
        "__shape__": "(512,)", 
        "__storage_type__": "0", 
        "__wd_mult__": "1.0"
      }, 
      "inputs": []
    }, 
    {
      "op": "null", 
      "name": "layer4_2_batchnorm1_running_var", 
      "attrs": {
        "__dtype__": "0", 
        "__init__": "ones", 
        "__lr_mult__": "1.0", 
        "__shape__": "(512,)", 
        "__storage_type__": "0", 
        "__wd_mult__": "1.0"
      }, 
      "inputs": []
    }, 
    {
      "op": "BatchNorm", 
      "name": "layer4_2_batchnorm1_fwd", 
      "attrs": {
        "axis": "1", 
        "eps": "1e-05", 
        "fix_gamma": "False", 
        "momentum": "0.9", 
        "use_global_stats": "False"
      }, 
      "inputs": [[428, 0, 0], [429, 0, 0], [430, 0, 0], [431, 0, 1], [432, 0, 1]]
    }, 
    {
      "op": "Activation", 
      "name": "layer4_2_relu0_fwd", 
      "attrs": {"act_type": "relu"}, 
      "inputs": [[433, 0, 0]]
    }, 
    {
      "op": "null", 
      "name": "layer4_2_conv2_weight", 
      "attrs": {
        "__dtype__": "0", 
        "__lr_mult__": "1.0", 
        "__shape__": "(2048, 512, 1, 1, 1)", 
        "__storage_type__": "0", 
        "__wd_mult__": "1.0"
      }, 
      "inputs": []
    }, 
    {
      "op": "Convolution", 
      "name": "layer4_2_conv2_fwd", 
      "attrs": {
        "dilate": "(1, 1, 1)", 
        "kernel": "(1, 1, 1)", 
        "layout": "NCDHW", 
        "no_bias": "True", 
        "num_filter": "2048", 
        "num_group": "1", 
        "pad": "(0, 0, 0)", 
        "stride": "(1, 1, 1)"
      }, 
      "inputs": [[434, 0, 0], [435, 0, 0]]
    }, 
    {
      "op": "null", 
      "name": "layer4_2_batchnorm2_gamma", 
      "attrs": {
        "__dtype__": "0", 
        "__init__": "ones", 
        "__lr_mult__": "1.0", 
        "__shape__": "(2048,)", 
        "__storage_type__": "0", 
        "__wd_mult__": "1.0"
      }, 
      "inputs": []
    }, 
    {
      "op": "null", 
      "name": "layer4_2_batchnorm2_beta", 
      "attrs": {
        "__dtype__": "0", 
        "__init__": "zeros", 
        "__lr_mult__": "1.0", 
        "__shape__": "(2048,)", 
        "__storage_type__": "0", 
        "__wd_mult__": "1.0"
      }, 
      "inputs": []
    }, 
    {
      "op": "null", 
      "name": "layer4_2_batchnorm2_running_mean", 
      "attrs": {
        "__dtype__": "0", 
        "__init__": "zeros", 
        "__lr_mult__": "1.0", 
        "__shape__": "(2048,)", 
        "__storage_type__": "0", 
        "__wd_mult__": "1.0"
      }, 
      "inputs": []
    }, 
    {
      "op": "null", 
      "name": "layer4_2_batchnorm2_running_var", 
      "attrs": {
        "__dtype__": "0", 
        "__init__": "ones", 
        "__lr_mult__": "1.0", 
        "__shape__": "(2048,)", 
        "__storage_type__": "0", 
        "__wd_mult__": "1.0"
      }, 
      "inputs": []
    }, 
    {
      "op": "BatchNorm", 
      "name": "layer4_2_batchnorm2_fwd", 
      "attrs": {
        "axis": "1", 
        "eps": "1e-05", 
        "fix_gamma": "False", 
        "momentum": "0.9", 
        "use_global_stats": "False"
      }, 
      "inputs": [[436, 0, 0], [437, 0, 0], [438, 0, 0], [439, 0, 1], [440, 0, 1]]
    }, 
    {
      "op": "elemwise_add", 
      "name": "layer4_bottleneck2__plus0", 
      "inputs": [[441, 0, 0], [418, 0, 0]]
    }, 
    {
      "op": "Activation", 
      "name": "layer4_bottleneck2_activation0", 
      "attrs": {"act_type": "relu"}, 
      "inputs": [[442, 0, 0]]
    }, 
    {
      "op": "Pooling", 
      "name": "pool2_fwd", 
      "attrs": {
        "global_pool": "True", 
        "kernel": "(1, 1, 1)", 
        "layout": "NCDHW", 
        "pad": "(0, 0, 0)", 
        "pool_type": "avg", 
        "pooling_convention": "full", 
        "stride": "(1, 1, 1)"
      }, 
      "inputs": [[443, 0, 0]]
    }, 
    {
      "op": "squeeze", 
      "name": "i3d_resnetv10_squeeze0", 
      "attrs": {"axis": "(2, 3, 4)"}, 
      "inputs": [[444, 0, 0]]
    }, 
    {
      "op": "Reshape", 
      "name": "i3d_resnetv10_reshape0", 
      "attrs": {"shape": "(-1, 1, 2048)"}, 
      "inputs": [[445, 0, 0]]
    }, 
    {
      "op": "mean", 
      "name": "i3d_resnetv10_mean0", 
      "attrs": {"axis": "1"}, 
      "inputs": [[446, 0, 0]]
    }, 
    {
      "op": "Dropout", 
      "name": "dropout0_fwd", 
      "attrs": {
        "axes": "()", 
        "cudnn_off": "False", 
        "p": "0.8"
      }, 
      "inputs": [[447, 0, 0]]
    }, 
    {
      "op": "null", 
      "name": "dense0_weight", 
      "attrs": {
        "__dtype__": "0", 
        "__init__": "[\"normal\", {\"sigma\": 0.001}]", 
        "__lr_mult__": "1.0", 
        "__shape__": "(101, 2048)", 
        "__storage_type__": "0", 
        "__wd_mult__": "1.0"
      }, 
      "inputs": []
    }, 
    {
      "op": "null", 
      "name": "dense0_bias", 
      "attrs": {
        "__dtype__": "0", 
        "__init__": "zeros", 
        "__lr_mult__": "1.0", 
        "__shape__": "(101,)", 
        "__storage_type__": "0", 
        "__wd_mult__": "1.0"
      }, 
      "inputs": []
    }, 
    {
      "op": "FullyConnected", 
      "name": "dense0_fwd", 
      "attrs": {
        "flatten": "True", 
        "no_bias": "False", 
        "num_hidden": "101"
      }, 
      "inputs": [[448, 0, 0], [449, 0, 0], [450, 0, 0]]
    }, 
    {
      "op": "null", 
      "name": "dense1_weight", 
      "attrs": {
        "__dtype__": "0", 
        "__lr_mult__": "1.0", 
        "__shape__": "(26, 0)", 
        "__storage_type__": "0", 
        "__wd_mult__": "1.0"
      }, 
      "inputs": []
    }, 
    {
      "op": "null", 
      "name": "dense1_bias", 
      "attrs": {
        "__dtype__": "0", 
        "__init__": "zeros", 
        "__lr_mult__": "1.0", 
        "__shape__": "(26,)", 
        "__storage_type__": "0", 
        "__wd_mult__": "1.0"
      }, 
      "inputs": []
    }, 
    {
      "op": "FullyConnected", 
      "name": "dense1_fwd", 
      "attrs": {
        "flatten": "True", 
        "no_bias": "False", 
        "num_hidden": "26"
      }, 
      "inputs": [[451, 0, 0], [452, 0, 0], [453, 0, 0]]
    }
  ], 
  "arg_nodes": [
    0, 
    1, 
    2, 
    3, 
    4, 
    6, 
    8, 
    9, 
    10, 
    11, 
    15, 
    17, 
    18, 
    19, 
    20, 
    23, 
    25, 
    26, 
    27, 
    28, 
    31, 
    33, 
    34, 
    35, 
    36, 
    38, 
    40, 
    41, 
    42, 
    43, 
    47, 
    49, 
    50, 
    51, 
    52, 
    55, 
    57, 
    58, 
    59, 
    60, 
    63, 
    65, 
    66, 
    67, 
    68, 
    72, 
    74, 
    75, 
    76, 
    77, 
    80, 
    82, 
    83, 
    84, 
    85, 
    88, 
    90, 
    91, 
    92, 
    93, 
    98, 
    100, 
    101, 
    102, 
    103, 
    106, 
    108, 
    109, 
    110, 
    111, 
    114, 
    116, 
    117, 
    118, 
    119, 
    121, 
    123, 
    124, 
    125, 
    126, 
    130, 
    132, 
    133, 
    134, 
    135, 
    138, 
    140, 
    141, 
    142, 
    143, 
    146, 
    148, 
    149, 
    150, 
    151, 
    155, 
    157, 
    158, 
    159, 
    160, 
    163, 
    165, 
    166, 
    167, 
    168, 
    171, 
    173, 
    174, 
    175, 
    176, 
    180, 
    182, 
    183, 
    184, 
    185, 
    188, 
    190, 
    191, 
    192, 
    193, 
    196, 
    198, 
    199, 
    200, 
    201, 
    205, 
    207, 
    208, 
    209, 
    210, 
    213, 
    215, 
    216, 
    217, 
    218, 
    221, 
    223, 
    224, 
    225, 
    226, 
    228, 
    230, 
    231, 
    232, 
    233, 
    237, 
    239, 
    240, 
    241, 
    242, 
    245, 
    247, 
    248, 
    249, 
    250, 
    253, 
    255, 
    256, 
    257, 
    258, 
    262, 
    264, 
    265, 
    266, 
    267, 
    270, 
    272, 
    273, 
    274, 
    275, 
    278, 
    280, 
    281, 
    282, 
    283, 
    287, 
    289, 
    290, 
    291, 
    292, 
    295, 
    297, 
    298, 
    299, 
    300, 
    303, 
    305, 
    306, 
    307, 
    308, 
    312, 
    314, 
    315, 
    316, 
    317, 
    320, 
    322, 
    323, 
    324, 
    325, 
    328, 
    330, 
    331, 
    332, 
    333, 
    337, 
    339, 
    340, 
    341, 
    342, 
    345, 
    347, 
    348, 
    349, 
    350, 
    353, 
    355, 
    356, 
    357, 
    358, 
    362, 
    364, 
    365, 
    366, 
    367, 
    370, 
    372, 
    373, 
    374, 
    375, 
    378, 
    380, 
    381, 
    382, 
    383, 
    385, 
    387, 
    388, 
    389, 
    390, 
    394, 
    396, 
    397, 
    398, 
    399, 
    402, 
    404, 
    405, 
    406, 
    407, 
    410, 
    412, 
    413, 
    414, 
    415, 
    419, 
    421, 
    422, 
    423, 
    424, 
    427, 
    429, 
    430, 
    431, 
    432, 
    435, 
    437, 
    438, 
    439, 
    440, 
    449, 
    450, 
    452, 
    453
  ], 
  "node_row_ptr": [
    0, 
    1, 
    2, 
    3, 
    4, 
    5, 
    8, 
    9, 
    10, 
    11, 
    12, 
    13, 
    14, 
    17, 
    18, 
    19, 
    20, 
    21, 
    22, 
    23, 
    24, 
    25, 
    28, 
    29, 
    30, 
    31, 
    32, 
    33, 
    34, 
    35, 
    38, 
    39, 
    40, 
    41, 
    42, 
    43, 
    44, 
    45, 
    48, 
    49, 
    50, 
    51, 
    52, 
    53, 
    54, 
    57, 
    58, 
    59, 
    60, 
    61, 
    62, 
    63, 
    64, 
    65, 
    68, 
    69, 
    70, 
    71, 
    72, 
    73, 
    74, 
    75, 
    78, 
    79, 
    80, 
    81, 
    82, 
    83, 
    84, 
    85, 
    88, 
    89, 
    90, 
    91, 
    92, 
    93, 
    94, 
    95, 
    96, 
    99, 
    100, 
    101, 
    102, 
    103, 
    104, 
    105, 
    106, 
    109, 
    110, 
    111, 
    112, 
    113, 
    114, 
    115, 
    116, 
    119, 
    120, 
    121, 
    122, 
    123, 
    124, 
    125, 
    126, 
    127, 
    128, 
    131, 
    132, 
    133, 
    134, 
    135, 
    136, 
    137, 
    138, 
    141, 
    142, 
    143, 
    144, 
    145, 
    146, 
    147, 
    148, 
    151, 
    152, 
    153, 
    154, 
    155, 
    156, 
    157, 
    160, 
    161, 
    162, 
    163, 
    164, 
    165, 
    166, 
    167, 
    168, 
    171, 
    172, 
    173, 
    174, 
    175, 
    176, 
    177, 
    178, 
    181, 
    182, 
    183, 
    184, 
    185, 
    186, 
    187, 
    188, 
    191, 
    192, 
    193, 
    194, 
    195, 
    196, 
    197, 
    198, 
    199, 
    202, 
    203, 
    204, 
    205, 
    206, 
    207, 
    208, 
    209, 
    212, 
    213, 
    214, 
    215, 
    216, 
    217, 
    218, 
    219, 
    222, 
    223, 
    224, 
    225, 
    226, 
    227, 
    228, 
    229, 
    230, 
    233, 
    234, 
    235, 
    236, 
    237, 
    238, 
    239, 
    240, 
    243, 
    244, 
    245, 
    246, 
    247, 
    248, 
    249, 
    250, 
    253, 
    254, 
    255, 
    256, 
    257, 
    258, 
    259, 
    260, 
    261, 
    264, 
    265, 
    266, 
    267, 
    268, 
    269, 
    270, 
    271, 
    274, 
    275, 
    276, 
    277, 
    278, 
    279, 
    280, 
    281, 
    284, 
    285, 
    286, 
    287, 
    288, 
    289, 
    290, 
    293, 
    294, 
    295, 
    296, 
    297, 
    298, 
    299, 
    300, 
    301, 
    304, 
    305, 
    306, 
    307, 
    308, 
    309, 
    310, 
    311, 
    314, 
    315, 
    316, 
    317, 
    318, 
    319, 
    320, 
    321, 
    324, 
    325, 
    326, 
    327, 
    328, 
    329, 
    330, 
    331, 
    332, 
    335, 
    336, 
    337, 
    338, 
    339, 
    340, 
    341, 
    342, 
    345, 
    346, 
    347, 
    348, 
    349, 
    350, 
    351, 
    352, 
    355, 
    356, 
    357, 
    358, 
    359, 
    360, 
    361, 
    362, 
    363, 
    366, 
    367, 
    368, 
    369, 
    370, 
    371, 
    372, 
    373, 
    376, 
    377, 
    378, 
    379, 
    380, 
    381, 
    382, 
    383, 
    386, 
    387, 
    388, 
    389, 
    390, 
    391, 
    392, 
    393, 
    394, 
    397, 
    398, 
    399, 
    400, 
    401, 
    402, 
    403, 
    404, 
    407, 
    408, 
    409, 
    410, 
    411, 
    412, 
    413, 
    414, 
    417, 
    418, 
    419, 
    420, 
    421, 
    422, 
    423, 
    424, 
    425, 
    428, 
    429, 
    430, 
    431, 
    432, 
    433, 
    434, 
    435, 
    438, 
    439, 
    440, 
    441, 
    442, 
    443, 
    444, 
    445, 
    448, 
    449, 
    450, 
    451, 
    452, 
    453, 
    454, 
    455, 
    456, 
    459, 
    460, 
    461, 
    462, 
    463, 
    464, 
    465, 
    466, 
    469, 
    470, 
    471, 
    472, 
    473, 
    474, 
    475, 
    476, 
    479, 
    480, 
    481, 
    482, 
    483, 
    484, 
    485, 
    488, 
    489, 
    490, 
    491, 
    492, 
    493, 
    494, 
    495, 
    496, 
    499, 
    500, 
    501, 
    502, 
    503, 
    504, 
    505, 
    506, 
    509, 
    510, 
    511, 
    512, 
    513, 
    514, 
    515, 
    516, 
    519, 
    520, 
    521, 
    522, 
    523, 
    524, 
    525, 
    526, 
    527, 
    530, 
    531, 
    532, 
    533, 
    534, 
    535, 
    536, 
    537, 
    540, 
    541, 
    542, 
    543, 
    544, 
    545, 
    546, 
    547, 
    550, 
    551, 
    552, 
    553, 
    554, 
    555, 
    556, 
    558, 
    559, 
    560, 
    561, 
    562, 
    563, 
    564
  ], 
  "heads": [[454, 0, 0]], 
  "attrs": {"mxnet_version": ["int", 10500]}
}